hand_gestures_classifier.pt (torch, 58447 bytes, 12 tensors)

weight f4 [32, 42, 3]
00000000: c2e4 6a3d bffc 4f3d c064 0ebc 6799 823b
00000010: 0917 7a3d 5bc5 31bd 8972 98bc 7528 9dbd
00000020: 1fac 4f3d 469f e43c e05e 81bd 8c47 6a3d
00000030: 1bda 7bbd 6bb0 7abd caa3 a0bd a614 893c
00000040: 3504 2e3d fcc6 8a3d eb52 9bbd 4bcb 8ebd
00000050: 0330 2a3c 8e8f a83c c242 d9bb 4e19 693c
00000060: 31a2 58bd d7cf 8fbd 3f74 643d 07cb 7f3d
00000070: 5366 06bd fcfc bcbd cf7d 993d 0fdc a4bd
00000080: fc90 81bc 1bb4 15bc bb8f a9bd 9369 403d
00000090: cd34 80bd dbab 9dbd 6ada bdbd 3f04 b03a
000000a0: 7018 8dbd b1eb 5a3d 94f8 cf3b ce2d 6abd
000000b0: 5175 8a3d 9e99 a03d 0590 3a3d 83ad 1f3c
000000c0: 2c87 cfbb f19e 9b3c cbaa 153d 5a15 05bc
000000d0: 948e 95bc 6830 963c d96a 2a3d 0b27 a33d
000000e0: c799 1dbd 4da6 a4bd a448 33bc 68b7 7d3b
000000f0: d09a 813d 2322 28bd 5548 54bd dad1 fa3c
00000100: 05e7 af3d f819 883d 8c55 65bd 004e 633d
00000110: fd71 853d 7c48 083d 2a42 153c cb29 543d
00000120: 0dde a0bd 61f5 7cbd 5b13 0bbd 03cd 1fbc
00000130: 6433 aa3d 73e9 b1bd e97e 6fbd b5b6 56bd
00000140: 38e6 bfbd 4546 da3c 4aa1 16bd 8df0 aebd
00000150: 7cc1 963c bfee 723d 9263 9e3d 6a42 5dbc
00000160: bd4d a3bd 4bdb bcbc b1ce a6bc b0bb f5bc
00000170: 13f0 643d 1ff0 f43a b744 b13d 183e 8dbb
00000180: aa0a c83c 769f d3bb 2061 c0ba 0af2 333c
00000190: d1fb b1bd 04f9 80bc 5f4d a6bd 120d e03c
000001a0: 3ba0 90bd c97e 14bd 7da0 98bd fa1f 7cbd
000001b0: cc8f 6cbc d9cd 8c3d d05e c1bd ebb4 9c3c
000001c0: 7f46 80bd 688c 993d 437d 31bd 0e8d 9e3c
000001d0: 051a 1abd c923 25bd 3da6 10bd 0073 87bd
000001e0: 0f5f 24bd 68f8 833c 267c d3bc 0167 f33c
000001f0: 827b 7cbd 2efa 703d a251 ac3c 8fd0 89bd
00000200: 4e2e 703c 2d45 0b3b 5d91 613e cbc1 4c3e
00000210: 61b4 aa3c dd55 5abd 0bfa 4f3c 246e 073e
00000220: e841 843d 4c46 513d bdd2 d33b 2ffe eebc
00000230: 6f55 873d c628 87bd 55ca 983d 2e38 333b
00000240: a1c1 a1bd ed3d b1bc 52c5 713c 602f a73c
00000250: 6294 953c 21e7 3f3c bdbd a6bc e2ef cabc
00000260: 5703 29bd 561f 283d f841 debd b591 403b
00000270: 256d 4b3d 49bb 71bd 3496 c8bd a4a3 c4bd
00000280: 1f1a a83d faf7 693d 0aeb ce3a d653 ad3d
00000290: 96a4 66bd 980e 73bd 0be5 71bd fb7e ac3c
000002a0: ecaf 903d 2a2d c13d 7d90 60bd 5bc8 1bbd
000002b0: 2e9c 5fbd 8487 e8bd 73cf 713d 577b b63d
000002c0: 0d26 bb3d a432 68bc 0d81 c5bd 615d 85bd
000002d0: 86e0 10bd ece3 a1bd ad89 cebd 9a73 423d
000002e0: 493d ae3d 685f 8abc 2459 8e3d 1bc4 db3b
000002f0: 849b 893b 210e 6cbd 8cfc 493d 6e35 4d3c
00000300: 6599 38bd a4c2 c0bb 169c 203c 1b5d 4d3b
00000310: f672 12be b863 e5bd b15f 80bd 6171 af3c
00000320: 7c9e e3bc c084 68be a5c6 55be 95ae 7bbe
00000330: 9304 63bd 6731 e43b bc50 393d ce73 a0b9
00000340: 7b45 6f3d a6b1 953d a8ac 923d 23ff 34bd
00000350: edf2 a8bd b0a0 773b 408e a73d 79ac d13d
00000360: 398d 3cbc f920 1ebd e435 f1bc d419 b7bd
00000370: e949 693c 83d9 e6bd e8f1 63bd f76a 58bc
00000380: d7f2 d33d 111e 26be ae06 b0bd 1871 53be
00000390: e262 753d 5347 1f3d 9f45 afbd 84c7 3f3e
000003a0: e0c2 fa3d c15b 423e 8d69 6ebd d97c 6cbc
000003b0: 94db 8d3c 7a6f b93d 79c7 323e 8b96 f13d
000003c0: c3a8 2c3d 7743 183d 4e4b f6bb 038a 953d
000003d0: 2351 d53c ce72 393c b274 b1bc 8528 a4bc
000003e0: 946c 9c3c 0df3 0e3d 952a 513d 23f8 8a3b
000003f0: e7bc 933c 7adc 26bd fa38 0c3d 70a0 453e
0.057347067 0.050778147 -0.008691013 0.003985572 0.061057124 -0.043401103 -0.018609302 -0.07673732
0.050701257 0.027907979 -0.06316924 0.05719714 -0.0614873 -0.0612034 -0.0784374 0.016733479
0.04248448 0.067762345 -0.07584175 -0.06972369 0.010387423 0.020576265 -0.0066302726 0.0142272245
-0.052889053 -0.07022064 0.055774923 0.06244948 -0.032812428 -0.092279404 0.07494699 -0.08049785
-0.015816204 -0.009137179 -0.082793675 0.046975683 -0.06260071 -0.076987945 -0.09270175 0.0013429
-0.06889427 0.05344743 0.0063467715 -0.05717259 0.067606576 0.078418 0.045547504 0.009745958
-0.0063332524 0.018996688 0.036539834 -0.008122766 -0.018256463 0.018333629 0.041605804 0.07966431
-0.03847673 -0.08039532 -0.010942612 0.0038714055 0.06328356 -0.04104818 -0.051826794 0.030617643
0.08588985 0.06645578 -0.055989787 0.05549431 0.06515882 0.03327225 0.009110013 0.05179767
-0.07854853 -0.06175745 -0.033954006 -0.009753468 0.08310583 -0.08687105 -0.05847064 -0.052420337
-0.093700826 0.026644835 -0.03677491 -0.08541975 0.018402807 0.059309717 0.07733835 -0.013504604
-0.07973812 -0.023053786 -0.02036223 -0.029996723 0.055893015 0.0018687284 0.086556844 -0.0043103807
0.024419148 -0.006458218 -0.0014677383 0.010983 -0.08690608 -0.01574374 -0.08120226 0.027349982
-0.070618115 -0.036253724 -0.07452486 -0.061553933 -0.014438581 0.068752 -0.09441912 0.019129237
-0.06263446 0.074974835 -0.04333235 0.01935437 -0.03762247 -0.04031733 -0.035314787 -0.066137314
-0.040129717 0.01610966 -0.025816035 0.029712202 -0.061641224 0.05883234 0.02103502 -0.067292325
0.014659477 0.0021250949 0.22028108 0.19995801 0.020837964 -0.05330454 0.012693892 0.13225609
0.06457883 0.05109243 0.006464331 -0.029173939 0.06608092 -0.06599574 0.07460467 0.0027346718
-0.0789826 -0.021635974 0.0147565175 0.020408332 0.018259231 0.01171282 -0.020354146 -0.024772588
-0.04126295 0.04104551 -0.10852426 0.0029383723 0.049664635 -0.0590165 -0.09794274 -0.096015245
0.08208107 0.057121255 0.00157866 0.08463256 -0.056309305 -0.05934009 -0.059056323 0.021056643
0.070648044 0.094324425 -0.054825295 -0.03803287 -0.054592304 -0.113539726 0.05903573 0.08910244
0.09138117 -0.01417223 -0.09643755 -0.06511951 -0.035370372 -0.07904801 -0.10084853 0.047473527
0.08507783 -0.016891196 0.06950596 0.006706727 0.004199447 -0.057630662 0.049313113 0.012524946
-0.045068163 -0.005882578 0.009802839 0.0031336013 -0.14301667 -0.112006605 -0.06268252 0.021416368
-0.027785532 -0.2270689 -0.20876558 -0.24578317 -0.055424284 0.006963897 0.04524301 -0.0003060386
0.05841587 0.073092744 0.07161838 -0.04418863 -0.082494594 0.0037784986 0.08181429 0.10237975
-0.0115082795 -0.038605664 -0.029444642 -0.08940473 0.014238813 -0.11271956 -0.05565062 -0.013209096
0.103490524 -0.16222407 -0.08595024 -0.2064861 0.059908755 0.03888638 -0.08558201 0.18728453
0.12244201 0.18980314 -0.05820613 -0.014434063 0.017316617 0.090544656 0.17458905 0.11796292
0.04215313 0.037173714 -0.0075163012 0.07301714 0.026039666 0.0113188755 -0.02166209 -0.020038852
0.019094743 0.03489976 0.051066 0.004241006 0.018034412 -0.040737607 0.034234025 0.19299483

bias f4 [32]
00000000: f3c6 32bd 5620 abbe f5f0 a0be e511 75be
00000010: fc0f c1bd 53d9 7fbd c3c6 a2bd 947c ae3c
00000020: 6a6d 6abd 4ad2 d63c 9927 c93c f40b 28ba
00000030: bcaa af3d 3029 103d 98fd e4bc 7888 82bc
00000040: 8e20 cebc 5764 a2bc 3372 bdba b201 9ebb
00000050: fbc4 68ba 37e4 c5b9 ecc0 e53b 4509 b4bd
00000060: feff feb9 f8ff 60bb 780d 6ebd c9c9 533d
00000070: 8451 2c3c 99f8 50bd 44be 633d f866 93ba
-0.043646764 -0.33423108 -0.31433836 -0.23932607 -0.09426877 -0.062463116 -0.07948067 0.021299638
-0.05723325 0.02622332 0.024555014 -0.00064104726 0.08577487 0.03519553 -0.027952954 -0.015934214
-0.025162008 -0.019823236 -0.001445359 -0.0048219794 -0.000887945 -0.000377448 0.0070115235 -0.087908305
-0.00048637384 -0.0034332257 -0.058118314 0.05170611 0.010517482 -0.05101833 0.055601373 -0.0011245897

weight_ih_l0 f4 [64, 32]
00000000: 7da6 903c 8f30 c53e 1fde 1f3e 1198 b13e
00000010: edb9 a03e 252c dc3e d259 c43e 4699 963e
00000020: a885 e53d 0bd7 f73e f3ef 9c3e 2a65 7d3e
00000030: 8b20 633e 9147 d73e bc51 80bd 8187 613e
00000040: 7e0a 97bd 1a3f f1bc 6aa6 873d 9a7e 023d
00000050: cfd6 c3bd f2c6 b8be db36 68be 6737 44be
00000060: 1d6e 01bf e994 18bf 9f5e d4be 092f adbe
00000070: 0f82 90be 0339 29be 5194 af3d 615d 633e
00000080: 447e b33e 0370 b63d ade7 a13d 39ae b73d
00000090: 0473 773e 5bf9 9e3e af68 933e ab07 353e
000000a0: fc1d bc3e c7d8 d73e 5960 863d a0be 3a3e
000000b0: 4697 fb3e 3f09 85bc e6c5 e43d 72be 0a3f
000000c0: 013c 183f 6d74 093f 2b34 37bd 8034 3d3d
000000d0: 481e 383c 2e9f 0e3e d825 0c3f b1f8 1e3f
000000e0: 464d 923d 0efb e83e 368e cd3e 242b 933e
000000f0: 88f3 f63e ae87 5d3d e2d5 b43e 0eb2 ba3e
00000100: cbd0 f33e 5fcf 143f 2597 ea3e 176c f83e
00000110: e72b 193f f46e f83e 6e8e 903e 2728 233e
00000120: 233e da3e 944e 0e3f 4c40 fe3d e317 893e
00000130: 6318 d93e 21fc aa3e 9296 b43c d525 923e
00000140: 8b59 3a3e eed1 cc3d 137c e3bc dc08 26bd
00000150: 0dc5 1dbf ee8c eabe 5ff4 913d 6194 53be
00000160: 723f 15be c3ac 31be 5f7f 46bb 992e 403e
00000170: 52df f33d f9cb a63e 2055 bb3e 460f aa3e
00000180: 2fb3 d6bd e7f3 33bd 8052 babd ce05 afbd
00000190: 3de8 7ebe ef39 e13d bcba 1bbe fadd 1bbe
000001a0: dc7c cfbd cb7a 8d3d e404 4abe 5c88 28bd
000001b0: ffc7 be3d 6e83 2a3e 489b 5e3e efbc 113e
000001c0: 3281 7b3d 6c3e 7d3e e5a6 9a3e ad4c 883e
000001d0: e127 9d3e 39e4 dd3e 706d 833e 496c 963e
000001e0: 5fbe cc3d 446c af3c 1d9e debe 1dbc 6dbe
000001f0: b144 fc3c 8710 663e 8a55 773e 6901 8d3e
00000200: a8f8 bb3e 3a3f 8dbc fda1 153e d411 033f
00000210: 990d 48bd c1b0 303e e27f 043f 736f b63d
00000220: 342f fe3e 5988 0d3f 06a9 273f bdf0 a23c
00000230: 5a51 e23e ced5 a43a 7005 453e c74f 023f
00000240: 28ef 213d a63c 7b3e 9e2d 6d3e 0f7b 8c3b
00000250: 160b abbc eebc d03d 95a6 cabc 76cf 2f3e
00000260: a124 a33e 35f8 0a3d ce04 483e 870d bf3d
00000270: 83b8 a43d cb10 ca3d 6577 113e fb66 b33d
00000280: 05fc 4c3e ac5c 5f3e 34ca ad3e 03d6 c03e
00000290: d1b6 783e bd7d 04bc c1df b83e 17ae 063e
000002a0: 15cf 903e 8967 f2bc c633 6f3e e364 9a3d
000002b0: cce3 a73c 671d 3abe d826 0c3c f498 76be
000002c0: fc4a 893d 9e46 b2bd 9b14 66be e061 2f3d
000002d0: 7651 3abe 4f3b 35bd 8453 70be 1c9f 39be
000002e0: 213e 72bd 77e7 6bbe e885 25be 5c08 2ebe
000002f0: 0d0a 423e d724 8d3d 8e48 8a3e f451 933e
00000300: b966 b3bc 4953 b83e dec4 3fbc f8e6 053e
00000310: 659b b93e bc85 743e 9d1f 753e b70c 343e
00000320: 3704 553e 0dce 643e 7590 9d3e 7dfe 803e
00000330: 92fc 6d3e 7e87 b33d 8c30 9f3d d7e5 6e3c
00000340: cde3 9c3c 07fa 103e b9cd c0bd 6c70 21bb
00000350: a29e 46be a0ef 1fbc 9c3a f5be 20d0 a8be
00000360: acbd 75be dc92 e3bd 791e 053d 5d23 4abe
00000370: 3403 ff3d 38ad ecbc d2d8 743e 105e 4b3e
00000380: 99a1 363f d5c8 fc3e 8d06 2b3f 3209 fe3e
00000390: de8c 893e bc6c 7d3e 6826 dd3e 14b9 1c3e
000003a0: 788c 923d 2d1f 573e 21d5 b93e ce33 ebbc
000003b0: 0d68 18bd b9ee c1bd a7ef 553e 0e0d 823d
000003c0: ff8d b9be 75e6 f5be 1fd8 2ebd a027 33bd
000003d0: 755c ebbe 2931 ffbe a536 5abe fa62 a5be
000003e0: 2751 c33d 613d 60be 3341 123e 86ce a23e
000003f0: 054d c83e c5c4 be3e 23c4 bb3e 6957 773c
0.017657513 0.3851361 0.15612076 0.3468633 0.3139185 0.4300243 0.38349777 0.29413813
0.112071335 0.48406252 0.30651817 0.24745622 0.22180383 0.42046788 -0.062655896 0.22024347
-0.07375048 -0.029449034 0.06623538 0.031859018 -0.09562456 -0.36089283 -0.22677176 -0.1916176
-0.50558645 -0.5960222 -0.4147844 -0.33824947 -0.28224227 -0.16525654 0.08573211 0.2220359
0.3505727 0.08908083 0.07905517 0.08968777 0.24164969 0.31049618 0.28790805 0.17678706
0.36741626 0.42157575 0.065613456 0.1823678 0.4913885 -0.01623976 0.11170559 0.54196846
0.5946656 0.53693277 -0.044727486 0.046192646 0.011237688 0.1392791 0.54745245 0.6209822
0.07143645 0.4550404 0.4014756 0.2874385 0.48232675 0.054084472 0.3531943 0.3646397
0.47620234 0.58128923 0.4581844 0.48519966 0.59832615 0.4852215 0.28233665 0.15933286
0.42625532 0.5558865 0.124146074 0.26776037 0.42401418 0.33395484 0.022044454 0.2854449
0.1819822 0.100009784 -0.027769124 -0.040535793 -0.616288 -0.45810646 0.07126688 -0.20662071
-0.14574984 -0.1735106 -0.0030288321 0.18767776 0.11907829 0.32577494 0.36588383 0.33214778
-0.10483395 -0.043933775 -0.09097767 -0.08546029 -0.2489328 0.10997378 -0.15207952 -0.15221396
-0.10131237 0.069081865 -0.19728428 -0.041145667 0.0931549 0.16651699 0.21738923 0.14232229
0.061402507 0.24730843 0.30205455 0.26621 0.30694488 0.43338183 0.25669432 0.2937949
0.09997248 0.02141393 -0.43480006 -0.23216291 0.030794473 0.22467242 0.24153724 0.27540138
0.36713147 -0.017242063 0.14612575 0.5119908 -0.048841093 0.17254926 0.51757634 0.08907976
0.49645388 0.55286175 0.65492284 0.019890184 0.4420269 0.0012575926 0.19240355 0.5090298
0.039534718 0.24534854 0.23161933 0.0042871307 -0.02087931 0.101922855 -0.024737636 0.17168984
0.31863883 0.033928115 0.19533083 0.09328752 0.08043005 0.09866484 0.14205702 0.08759876
0.20018013 0.21812695 0.3394333 0.37663278 0.24288489 -0.008086619 0.3610821 0.13152348
0.2828299 -0.029590385 0.23359594 0.07538774 0.020494364 -0.18175279 0.008554183 -0.24081784
0.06703755 -0.087048754 -0.22468798 0.04281795 -0.18195137 -0.044246014 -0.23469359 -0.18127102
-0.059141282 -0.23037516 -0.16164362 -0.16995376 0.18949147 0.06891792 0.2700848 0.28773463
-0.021899568 0.36001042 -0.011704652 0.13076389 0.3625137 0.2387914 0.23937841 0.17582975
0.20802389 0.22344227 0.30774274 0.2519416 0.23240879 0.087660775 0.077729315 0.014581165
0.019151593 0.14157878 -0.094142385 -0.002463366 -0.19396451 -0.009761721 -0.47896278 -0.32971287
-0.23998135 -0.111119956 0.032499764 -0.19740053 0.12451783 -0.02889119 0.23910835 0.19860101
0.7134033 0.49371973 0.6680687 0.4961639 0.26865286 0.2474851 0.43193364 0.15304977
0.071556985 0.21007986 0.36295417 -0.028711226 -0.037208606 -0.09469361 0.20892201 0.06350146
-0.36241147 -0.48027387 -0.042686578 -0.04373896 -0.45968977 -0.49842194 -0.21309908 -0.32302076
0.09536963 -0.21898414 0.14282684 0.3179819 0.3912126 0.37259498 0.36673078 0.015096524

weight_hh_l0 f4 [64, 16]
00000000: 6b65 19bf 2226 ff3d 0493 1f3d a45e 16bc
00000010: 12e9 db3e f8b7 42be b550 00bf 14d2 65be
00000020: 7c90 10be 8f4a 51be d484 05be 2d51 193f
00000030: d498 8abe 490f f93e 1431 c53d 8365 be3e
00000040: 7292 9fbe 5a44 69be 19f8 973e ddbc b73c
00000050: 3ba5 fd3e 472e a83c c7cb b3be 827b c33d
00000060: 5689 94bd 40c9 42be 4966 3b3e fc53 033f
00000070: bac3 653e a819 2d3f a497 153e fbd7 543e
00000080: de57 89bd 0f37 acbe eb17 6c3d bb11 533d
00000090: 7aa2 5c3e 52c4 303e b831 68be 58b6 cdbc
000000a0: ee22 d13e 057b 7c3c 085c b73e 19c5 103e
000000b0: 22f7 353e c9c6 103e 73d5 babd ba29 8abd
000000c0: 22c1 87be 619a b23d a0a1 86be 3239 8d3d
000000d0: c28c 083e 377b 0abf a171 273e 6b63 bbbc
000000e0: 5790 28be d02a afbe 224c bcbd 99b1 f4bd
000000f0: 9b05 063f 25ac 883e 3e0e 6b3c 3c8b 1c3e
00000100: 39d4 3abe 15ca bebe 89c4 ec3d 3c40 143e
00000110: 0b71 92bd 8095 e9be 0fae 67be f513 39be
00000120: 859f eabd 052a aa3c 40c2 10bc f62b 2ebe
00000130: 0442 223f d4e8 043f 839d cc3e c8a1 9dbe
00000140: 8a0b 773d a2b9 b13d 9202 24be 8cb9 123d
00000150: ab47 543e 81a5 333b de7b 26be 10cc 7dbd
00000160: ad6b 003e 3268 4dbd 1942 91be 91fe a23c
00000170: 9c14 2e3f 4b16 493f 62b8 f93d 71c5 06bf
00000180: 2f76 dfbe f066 98be 849a 32bd 741f e53d
00000190: ca77 003f e4fc 28bf 595f 79bf db83 01be
000001a0: 4647 36be 969f 01be 07aa 7ebe 61c9 103d
000001b0: 214d 9f3e c10f 023f 1c04 243f 5454 96bd
000001c0: 6d45 56be cae6 96bd a0c5 da3b 010b 413e
000001d0: d4c4 c63e 418e c4be 79ea d1be efde 783e
000001e0: 5aaf 833e 6098 6b3e 60d6 13bd 1367 fb3e
000001f0: a595 ec3e 9612 493e 56d8 713e f3e2 ab3e
00000200: 20db 2abf d214 8bbf 3258 843e c3c2 acbe
00000210: f8ed 4bbd e309 8dbd cdee a8be ba9f 053f
00000220: 80b9 1a3e 21f9 c13e e9df 983e a617 61be
00000230: 0857 2d3f 75ee b1be fade 933d f17b 07bd
00000240: 5ab0 a1be 164a c1bd 015a 853e 4d66 953e
00000250: c9a2 9b3e 581f 82bd c605 9dbe b21b b73d
00000260: fdb5 123e ada4 9c3e a5e3 593e cce7 f73e
00000270: 50cc 023f e2bd 3f3e e1d6 513e 1a84 50be
00000280: dea8 9dbe 354a 64be 14d6 563e c4e2 d13e
00000290: 5006 b73e b1c7 053d 2a04 a0be 1e59 3b3c
000002a0: 07f9 003f ed47 e0bc a92f cb3c 74e9 4a3f
000002b0: adc6 b4bc a264 25bd 4006 aa3e 9015 b63e
000002c0: 66fa c8be 6d1d d8be 5e7d 143f 6602 47bc
000002d0: 04f1 093e 8958 3bbd bdbb c3be 84ae 6f3e
000002e0: b82e 883d b2c9 ff3e 46f5 0b3e e955 dbbe
000002f0: 17cd 0dbe 6a0f 6cbd b4a9 2d3e e4dd 96be
00000300: a84c 81bc 56a1 b83d d04d 90bd d9d4 17be
00000310: 2d2b a3be 64e3 52bf 4675 523c 5130 24be
00000320: 8295 943e 88a2 66be f3bc da3d 368d 95be
00000330: f19c 9bbf fa02 3ebe 2c00 a9bd 112d 783e
00000340: 7ec4 8ebd 2345 7ebe 41b9 123d 26a3 d33c
00000350: 9ff9 ae3e d45e 023e ff8d acbe cf65 a13d
00000360: 9858 1b3f edbc bb3e 15b9 ac3e d2d0 273e
00000370: caf2 3ebf 3a7e 08bf bb9b 31be 479f 683d
00000380: f4ce bf3d 3d0b 7ebd e15f 5bbe 75f2 4f3f
00000390: 74e4 cd3e 89d6 8dbe 1f61 99be 8706 d73d
000003a0: cec1 f2bc 0cf0 683d 53ee c3bc a5d7 443e
000003b0: f669 9a3e e9de 1a3f f962 113f ae76 30be
000003c0: 921c 44bf c4ab b7be 7738 653e dea0 f23c
000003d0: 1457 f73e de27 b7be 194c d5be 55ef ba3e
000003e0: 1aa9 ca3e bdde 8b3d e295 683d edd8 713e
000003f0: b3a0 3b3e d1ae 553e d858 0a3e 3f89 693d
-0.59920377 0.12458445 0.038958564 -0.0091778375 0.42951256 -0.19015491 -0.5012315 -0.2244342
-0.14117616 -0.20438598 -0.13038951 0.5988949 -0.27069724 0.48644474 0.096285015 0.37186822
-0.31166416 -0.2277998 0.2968147 0.022428924 0.49540123 0.02052988 -0.35116407 0.095450416
-0.07252757 -0.19022083 0.18300737 0.51300025 0.22437945 0.67617273 0.14608628 0.20785515
-0.067062125 -0.33635756 0.057639997 0.05153058 0.21546355 0.1726239 -0.22675216 -0.025111362
0.40846962 0.0154101895 0.35812402 0.14137687 0.17770055 0.1413833 -0.091227435 -0.0674624
-0.26514536 0.08720852 -0.26295185 0.06895675 0.13334945 -0.5409426 0.1635194 -0.022874555
-0.16461311 -0.3421235 -0.09194209 -0.119479366 0.52352303 0.26693836 0.014346657 0.15287489
-0.18245019 -0.3726355 0.115609236 0.14477628 -0.071504675 -0.45621872 -0.22624992 -0.18074019
-0.11456207 0.02077199 -0.008835375 -0.17008957 0.6338198 0.5191777 0.39963922 -0.30787492
0.06031374 0.08677985 -0.16016605 0.035821483 0.20730464 0.002741188 -0.16258189 -0.061962187
0.12541075 -0.050148197 -0.2837074 0.019896777 0.680002 0.7854964 0.12193371 -0.5264502
-0.43644854 -0.29766035 -0.04360439 0.1118764 0.50182784 -0.6601088 -0.97411114 -0.12647955
-0.17800626 -0.12658533 -0.24869548 0.0353483 0.31113532 0.5080529 0.6406877 -0.07340303
-0.20924921 -0.07368238 0.0066763908 0.18851854 0.38822043 -0.3838978 -0.409992 0.24303792
0.2571972 0.23007345 -0.036093116 0.49102077 0.4620792 0.19635996 0.23617682 0.33571586
-0.6674061 -1.0865729 0.25848538 -0.3374234 -0.04978749 -0.06886651 -0.3299469 0.5219685
0.15109825 0.37885383 0.2985833 -0.21981677 0.67710924 -0.3475224 0.07220264 -0.033077184
-0.31579858 -0.09437959 0.2604523 0.29179612 0.30397633 -0.063536346 -0.30668467 0.08940829
0.14327236 0.30594388 0.21278246 0.48419034 0.51093006 0.18724778 0.20492126 -0.20362893
-0.30792898 -0.22293933 0.20980102 0.4099332 0.35747004 0.032661144 -0.31253177 0.011434821
0.50379986 -0.027378047 0.024803 0.7926247 -0.022067392 -0.040379174 0.33207893 0.35563326
-0.3925354 -0.4220995 0.58003795 -0.012146568 0.13470846 -0.04573873 -0.3822917 0.23406416
0.06649536 0.4995857 0.13667783 -0.42838982 -0.13847767 -0.057631887 0.16959268 -0.29466164
-0.015783623 0.090151474 -0.070460916 -0.14827289 -0.31868878 -0.8237822 0.012845343 -0.16034056
0.29020315 -0.22522938 0.106805705 -0.29209298 -1.215727 -0.18555823 -0.08251986 0.24235941
-0.06971072 -0.24831061 0.035821203 0.025834631 0.3417482 0.12731487 -0.33702084 0.078807466
0.6068206 0.36667576 0.33734956 0.16388252 -0.74589217 -0.53317606 -0.17344563 0.056792524
0.09365645 -0.062022436 -0.21423294 0.81229335 0.40213358 -0.2770274 -0.2995691 0.10499292
-0.029633429 0.05686955 -0.023917353 0.19222887 0.30158967 0.60496384 0.56791645 -0.17232773
-0.76606095 -0.35873234 0.22384821 0.029617723 0.48308623 -0.35772604 -0.4165962 0.3651072
0.3958214 0.06829593 0.056783564 0.23617907 0.1832302 0.20867468 0.13510454 0.057015654

bias_ih_l0 f4 [64]
00000000: 1ba5 b13e 22fb 2e3f 3fa4 e03c 67f8 eb3e
00000010: dd9d 9c3e 50bd bb3d 3a6d d23e b206 0e3f
00000020: 157a 633e 9ba4 6b3c e4a3 093e f529 b93e
00000030: f313 24be 1191 993e 810c 093b ad48 1a3f
00000040: cd6e 6c3b a800 d13c 9fdb 9ebd 050c ab3e
00000050: d672 2d3e e57a 623e 6f2f 933e 0922 3f3e
00000060: c9ce 723e 1190 463e 4bbf 623d 0714 a93d
00000070: 52b9 2e3f 7749 4f3e f079 db3d 0c2a 1e3e
00000080: 2056 aabe 0d1c 24be 45e5 fc3d cecf 67be
00000090: 0dd5 4b3e 8bfa 59be b569 30be b72a 3ebc
000000a0: 6adc e1bd 8af3 a1bd 598f 14be e69d 81bc
000000b0: c33d 513e 862f 573e 3c98 e63d 588f 833d
000000c0: 0bfe a33e 689c 193e d86a a93e 3172 413f
000000d0: a0e5 963e 1937 fa3e b4cf 093f 440e 863e
000000e0: d244 2f3e 37e4 af3e 6276 df3e f971 d43e
000000f0: c853 0e3f d1f6 b53e a7d6 123f 23b9 013f
0.34696278 0.6835195 0.027422069 0.46087953 0.3058919 0.09166968 0.41098958 0.55478966
0.2221454 0.014382507 0.13441426 0.36164823 -0.16023235 0.2999349 0.0020911994 0.60267144
0.0036076785 0.025513008 -0.07756733 0.33407608 0.16938338 0.22117193 0.28747126 0.18665327
0.23711695 0.19390894 0.055358212 0.08255773 0.68251526 0.20242868 0.10716617 0.15445727
-0.33268833 -0.16026326 0.12348417 -0.22637865 0.19905491 -0.21286981 -0.17227824 -0.011606864
-0.11028369 -0.079077795 -0.14507808 -0.015822362 0.20433716 0.21014223 0.11259505 0.06423825
0.32029757 0.1500107 0.33089328 0.7556487 0.29472065 0.4887016 0.53832555 0.2618276
0.17116097 0.34353802 0.43645006 0.41493204 0.5559659 0.35539868 0.57358783 0.5067312

bias_hh_l0 f4 [64]
00000000: 47e8 273f b9c7 fc3e e40a 0a3e 2a72 803e
00000010: ce0a ff3e 6a50 28bc 4c6d 0d3f 429b 4c3e
00000020: e974 8f3e 57c6 d93d ea24 3f3e 06d1 853e
00000030: b56a 063d a439 833e 9a7a 9a3d 8aee 0b3f
00000040: 50ca 723e 13d9 573d cf81 953d 772a d73e
00000050: 9605 a53e 81de 25bd e1d5 cc3d 524d 333e
00000060: 2cfd 8e3e 6452 ecbd 17db b73e fe94 f33e
00000070: 4b39 1d3f 076b d23d bd6b 613e 764f 36bb
00000080: bd3f e8bd 91a4 17bd 3c21 e2bc b370 c5be
00000090: f33b 19be f9da 92bd 114f 0bbc 4f53 e53d
000000a0: bb6d 503e 38db 59be 5bc2 aabd 1dbf fd3d
000000b0: 2ecd f63c 0a0a 7ebd f9b7 bebe 99bd 20be
000000c0: f5ce 043f 01e1 7f3e 9096 b03e 26d5 1b3f
000000d0: d02d 6c3e 7ce8 713d a52e 333f 3c8d 123e
000000e0: 5a8e 9f3e 9382 963e 33be 2e3e 188a e13e
000000f0: 2f0c 713f 8d96 233d 83ab fc3e b8b6 303f
0.655888 0.49371126 0.13480717 0.250871 0.4981293 -0.010273078 0.552449 0.19981101
0.28018883 0.106335334 0.18666425 0.26136035 0.032816608 0.25629914 0.07542916 0.54660857
0.23709989 0.052697252 0.0730015 0.42024586 0.32230824 -0.0404954 0.10001732 0.17509964
0.2792753 -0.11539152 0.3590934 0.4757461 0.6141555 0.1027432 0.22013755 -0.0027818359
-0.11340282 -0.037022177 -0.027603738 -0.38562545 -0.14964275 -0.07170672 -0.008502738 0.111975305
0.20354359 -0.21275032 -0.083378516 0.123899676 0.030127134 -0.062021293 -0.37249735 -0.15697326
0.5187829 0.24988176 0.3448987 0.60872114 0.23064351 0.059059605 0.6999305 0.14311689
0.31163293 0.29396495 0.17064743 0.4405067 0.94159216 0.0399385 0.49349603 0.69028807

weight_ih_l0_reverse f4 [64, 32]
00000000: 97d0 53be 1341 22be 3631 0b3d 2131 f1bd
00000010: 1ca5 6cbc 32de f3bd 2d1b 81be a6f6 43be
00000020: 1005 02bc 946d 69bc b44f 6ebe d0a6 3f3d
00000030: 58ae 50be 8d90 b1bd 79ec a3bd d001 c2bb
00000040: dd33 383d 4bb3 ff3c ae88 1c3d 4ff9 7fbe
00000050: 6b37 91be e423 83be c696 20be 1aff 64be
00000060: e648 8bbe cb00 49bd 7a2c 36be b01c c73d
00000070: 9b71 3dbd de67 04be b4f4 af3e 6130 ca3e
00000080: ce51 61bc a054 4abe 1b0f 55be 8fb8 33bd
00000090: 5657 5cbe ee90 8b3d 3589 4ebe dc7c 56be
000000a0: 71d6 733d 133e 0bbe 0ce1 f8bd ce69 7eb8
000000b0: 7194 3d3e c90d 09bd ac4e b4bd 30ae 1c3e
000000c0: 3021 bfbd 74a0 3e3d 7c68 6fbd da00 993c
000000d0: 4b23 30bd 3150 523c 850d 3dbe 1590 b73d
000000e0: 96eb f6bd 70f3 e53c 9e6a 373d 39c0 163e
000000f0: b75e 11bb d98c c0bd 6ef9 b73e b0fa 32bc
00000100: 7d03 96bb 7c80 093d fba7 14bd e6ae 22bc
00000110: c14f 02bd 2ebc c33d 65c7 883d 79f5 d6bd
00000120: a735 4abd 0362 b93d 62d3 40be 5a60 5cbe
00000130: 0228 c3bd 8e7c 9abc 193e aebd c3bf bbbd
00000140: 593d e5bc 1642 2cbe 3a94 823d c401 ce3c
00000150: 1948 19be f291 8b3d 0932 f43b 6f02 ab3c
00000160: cf1e c83d 1b6e f1bd 894f 0bbe e869 fbbd
00000170: 1aa4 fcbd 0870 4a3d 7389 a33e 74b3 043f
00000180: 0840 2e3e 21d7 9a3e 389c e3bc 2807 fe3d
00000190: e040 14bc 5891 8a3e f91f 47bd 5148 a83e
000001a0: 57c1 453d dc2f 1d3d bd65 a03e 892b da3e
000001b0: a960 523e 3f98 b23e 8cd6 973e 4cad 783e
000001c0: ee3d 083e 01e2 0cbc 56bd 933e c857 833e
000001d0: 73b1 4d3d a3fd a73e 474d 1c3d 303f 313d
000001e0: 3a26 b73e 9aa7 4d3e f2cf bf3e ca95 a63e
000001f0: 2762 ba3e 403b c53e ea38 ad3e 1569 143f
00000200: 5247 0dbe ad60 f33d 1194 29be 6d2e f03d
00000210: 5ace 45be 7197 293e 90ef 82bd 2997 26be
00000220: 7192 7ebe a5dc d63d acf2 39bd 6783 e23d
00000230: 80e1 783e c8ad 87bd 8c93 a9bd bf12 29be
00000240: ea2e 4bbe 23fb e1bd 0d65 0a3c 64fe 11be
00000250: d8d9 c43d 9fd9 37be a45d d7bd 667c 583e
00000260: b9ab 81be a5fe a7be b1dc b0bd 9b3e 57be
00000270: ce29 133d c5c0 fabd 72e4 8cbd 33ef c83d
00000280: 218f 443e 7b54 d2bc 68d5 ebbd 1c16 a43c
00000290: 432d 89bd dd22 a0bd e55f 1e3d 7c92 a73d
000002a0: ab72 0b3e 8a5f 453e a8b3 733e 8d39 223c
000002b0: 19da 263e d3c5 a63e 9541 143e 6958 2e3d
000002c0: 1d34 253e c33a 2f3b 3748 3b3e f9c2 c73d
000002d0: 951b b23d 73ca 03bb a960 883e 3b01 12bd
000002e0: 8475 463e 568c 003e 2f08 03b9 6f9e e93d
000002f0: ccb1 b73c 21f1 763e 99a4 043e c8ea 813e
00000300: 5191 5fbe d3ec 50bd 24dd 1b3d 6bf8 abbc
00000310: 40f9 4bbe c127 123e de24 8d3e b958 8a3d
00000320: d6ca 933e f072 423e d528 1e3e 1b6a 453b
00000330: 01df 743e c081 03be 9995 113e 2fd4 2ebe
00000340: b4d2 c43e 99e7 3cbd cb23 423e feff 7b3d
00000350: e4bd 5fbd e96a 88bd f6af 143e 5604 053e
00000360: 9f66 d3bd 064b 343e a717 6f3e 888c 4f3e
00000370: 7ba7 13be 128d 0bbe 3b36 7a3e 2c0a a93e
00000380: 20fd f0bd 462f 653e eab1 bc3e d475 a43c
00000390: bed4 053e 525a 9c3d 5da3 783c 7f7c 013e
000003a0: cd4c 37bb d5d1 883e d5b6 ad3d 48c6 003c
000003b0: 37f9 8fbd 64f0 e03d 03ee 393e 0dff 8b3e
000003c0: 9285 6b3e d31e 773e 6581 623e edc9 3b3e
000003d0: bc4f da39 3151 37bd 214e f53d 6807 c43d
000003e0: 9fc2 f73d 3a23 423e 5d61 a7bc 9242 963d
000003f0: 8ff3 b93c e768 8b3d 616e 683e 629d 063f
-0.2068504 -0.15845136 0.033982478 -0.11776949 -0.014443662 -0.11907615 -0.25216046 -0.19137058
-0.007935777 -0.014247317 -0.23272592 0.046789944 -0.20379007 -0.08670149 -0.08004088 -0.005920626
0.044971336 0.031213423 0.038216285 -0.24997447 -0.28362593 -0.2561332 -0.15682516 -0.22362939
-0.27204055 -0.04907302 -0.17790404 0.097222686 -0.04625092 -0.12930247 0.3436638 0.39490035
-0.013752414 -0.19758844 -0.20806544 -0.04387718 -0.21517691 0.068147525 -0.20169528 -0.20946068
0.05953068 -0.13597898 -0.12152299 -6.0656857e-05 0.18513657 -0.033460412 -0.08804068 0.15300822
-0.09332502 0.04653974 -0.058449253 0.018677164 -0.043002408 0.012836502 -0.18462189 0.08963028
-0.12056653 0.028070182 0.044779412 0.14721765 -0.0022181699 -0.094018646 0.35932487 -0.010924026
-0.0045780526 0.033569798 -0.03629301 -0.009929394 -0.03181434 0.09557377 0.066786565 -0.10496039
-0.049367573 0.090518974 -0.18830636 -0.2152113 -0.09529115 -0.01885822 -0.08507938 -0.09167435
-0.027983354 -0.16822085 0.06375928 0.025147326 -0.1496891 0.06814946 0.0074522537 0.020875184
0.09771501 -0.11788579 -0.13604559 -0.122760594 -0.123359874 0.049423248 0.31940803 0.51836324
0.17016613 0.30242255 -0.027784452 0.12403709 -0.0090486705 0.27064013 -0.048614476 0.32867673
0.048280086 0.03837572 0.3132762 0.4261134 0.20544685 0.3488178 0.29655874 0.24284858
0.13304874 -0.008598805 0.2885539 0.2565291 0.050218057 0.32810697 0.038159635 0.04327315
0.35771352 0.20083466 0.37463337 0.32536155 0.3640301 0.38521767 0.33832484 0.5797284
-0.13796738 0.11883674 -0.16560389 0.11727605 -0.19316998 0.16561677 -0.06393349 -0.162686
-0.2486055 0.10491303 -0.045397446 0.11060219 0.24304771 -0.06624943 -0.082800955 -0.16511057
-0.19842115 -0.11034229 0.008446944 -0.14257199 0.09611863 -0.1795411 -0.105159074 0.21141204
-0.25326326 -0.32811466 -0.086358435 -0.21019976 0.03592854 -0.12243799 -0.0687951 0.09811249
0.19195224 -0.025675049 -0.115153134 0.020030074 -0.06698086 -0.0781915 0.03866567 0.081822366
0.13617961 0.19274727 0.23799002 0.0099014165 0.16294135 0.32572803 0.14478143 0.042564783
0.16133161 0.0026737906 0.18289267 0.09753985 0.08696667 -0.0020109683 0.26636246 -0.035645705
0.19380766 0.12553534 -0.00012496182 0.11407172 0.022423647 0.24115421 0.12953414 0.25374436
-0.21832778 -0.051007103 0.038052693 -0.020992478 -0.199193 0.14272977 0.2756719 0.06755204
0.2886569 0.18989158 0.15445264 0.0030123058 0.23913194 -0.12842464 0.14217223 -0.17073129
0.38442004 -0.046119306 0.18958966 0.06152343 -0.054624453 -0.066610165 0.14520249 0.12989935
-0.10322308 0.17606744 0.23348866 0.20268452 -0.14419357 -0.13628033 0.2443475 0.33015573
-0.1176703 0.22381315 0.36854488 0.020075716 0.13069436 0.07634415 0.015175668 0.12645148
-0.002796936 0.2672259 0.08482138 0.007859774 -0.07029956 0.10983351 0.181572 0.27343026
0.23000172 0.24132852 0.22119673 0.18338747 0.00041639607 -0.044755165 0.119777925 0.09571725
0.12097668 0.1895875 -0.020432169 0.07336916 0.022699146 0.06807118 0.22698356 0.525839

weight_hh_l0_reverse f4 [64, 16]
00000000: 6d2a 3d3d 5043 413e 11ff 9bbd fc72 143e
00000010: a5e2 3d3f fb13 ac3e f1c1 9b3d 04c5 21be
00000020: e369 99bd 5fa2 1a3e 39d1 4ebe e591 963e
00000030: 0ab5 e2bd 1ba1 c93e caa4 99be f8f0 e93b
00000040: 7ae8 233e 2537 713e 7505 3ebd 3af6 f1be
00000050: 6799 59bc d981 43be 05c9 563e 3386 8abd
00000060: 5c6e 8ebe 9043 06be fa26 43bd e6a2 4bbe
00000070: 34f3 e33e 0038 4c3e ddae c5be 5677 c73e
00000080: ee5b 48be f3eb 4a3e 039e 6bbe bd35 cb3d
00000090: 58e7 d93d 4410 8b3e bbe0 84be 9e2e d6bd
000000a0: cccd b4bd 8ed3 1d3c 8f78 23be 53ca 9e3e
000000b0: f0d6 2fbf 7eb0 7d3d 56f9 8abe 29dc 313d
000000c0: f2cc 14bd fb28 8c3e 9fe4 cb3e d17f b7be
000000d0: e058 f53e fd22 783d 712d 673e fb3e 44bf
000000e0: 9deb a9bd e354 053e c5dd 6abe abf1 803e
000000f0: 25dc b3be 9aca c83d 03c1 973d aee6 aabd
00000100: 0473 a93e 2750 2abc 1469 773e 5577 1a3d
00000110: 9097 b23e cad7 ae3d ee08 2e3d 82c1 46bd
00000120: 9d9c 63be b358 9f3e be78 8fbe 96a4 aa3e
00000130: 1071 003f a3e8 593e 0429 8cbe e1af 5e3c
00000140: 701d f03e f771 b83e f24a 9a3e 8a68 dcbc
00000150: 1ec1 5d3e bfcf 92be 8c98 e83e 7a95 46be
00000160: 59fd aebd ff0f cb3d ee39 b9be a72d 943d
00000170: c292 37bd b6c7 da3e 13f4 873c 4b9b 853e
00000180: e932 df3c c124 92be 59fd bd3d c3c0 153e
00000190: 36cd ff3e 2107 df3e 789e 9bbc be48 9c3d
000001a0: 0e37 1d3e 8daa 233e ba8f b23e b8e3 953e
000001b0: a0e9 c6bd b9f8 893e 0649 903e 48a1 b4bd
000001c0: fa03 37bd f647 7d3e 8201 3fbd 03f9 69be
000001d0: 2646 23bd 1aaf 123e ab94 82be 6a20 e8be
000001e0: 6069 4cbe 0ee6 413c 4bd1 f73d eb06 8b3e
000001f0: 32a3 3fbd b125 07be f084 78bd 4999 b83d
00000200: e65a 923d d142 3c3e eaf4 d73d 0e9d 5abe
00000210: b67b f33d d0cb a13b ce6c 133e 4098 32be
00000220: 5758 333d 1ff5 033e 8208 3fbd 5760 f9bd
00000230: 8cc3 b73c f528 c73e a3c3 7b3d 9a79 c23e
00000240: e3f6 2c3d 30c2 6d3e 7f64 273d 8d2d 0fbe
00000250: 91d6 133f dc44 adbd d1b8 be3c 7b89 2d3d
00000260: 97b2 b6be 4a2b b9be 3fb0 a5be 45e7 e0bd
00000270: 36aa 7a3e c993 2c3d d301 a8be ef1c 193f
00000280: 5509 44be 55d1 2f3d 7448 8d3c aacc b0bd
00000290: 8dd2 6a3e 75c4 e4bc 6a9c 43be c75a 60be
000002a0: a1e5 cd3e 05b1 4d3e ee07 9b3d ac24 2a3e
000002b0: 7b65 06bf e26f c7bd d71e 05bb f940 77be
000002c0: b42e 693c 8335 cb3d 7526 5c3e ec2c c53d
000002d0: f136 093f d4e0 b6bd 5edf c23e 7e33 3fbe
000002e0: 85af 22bf 913f fdbd e741 ce3b 7aaf 89bd
000002f0: 0240 4c3d b563 0fbe a503 14bf 5e69 513e
00000300: b5c3 a83e 5d8d 143e 8921 e23e a530 10bf
00000310: 10a5 c43c d16d ddbe 1645 c73e 38e0 fbbe
00000320: 1dcb a7be d4bd b7be cdd7 3fbf 1e12 fdbd
00000330: 125f afbe 759c b83e 8460 e9be 24c5 e43e
00000340: 30f4 cabd b8ff 6a3d 27ca 00be 1b50 54bc
00000350: dd99 233f 8255 043e 9455 3abe 7275 d13d
00000360: 41d4 0cbd d4ed 8e3d 46b8 aa3d d712 013e
00000370: c332 f2be f326 ec3c e477 54be 2e9d 5d3e
00000380: 2032 0c3d b17a 273e 2f38 08bd fe98 313e
00000390: ac77 153f 7751 453b 91d0 8dbe af5a e2bd
000003a0: 2503 aabd 5c66 383e 61a4 0e3e 814d 063f
000003b0: 7a0f e3be 9e37 2fbe 7f6d 6abd abdb 193e
000003c0: 993b b9bd 5913 553e 0a10 1ebe 8d40 1ebd
000003d0: 428b 293f 18be debd 1622 293c 0009 f3bd
000003e0: 680b 4a3e 05a8 e2bc 19a6 003f 4845 d13d
000003f0: b5cb 99be c2fc c63d cf86 67be 4f76 70bb
0.04618304 0.18873334 -0.076170094 0.14496988 0.7417396 0.33608994 0.07605351 -0.15797812
-0.074908994 0.15101002 -0.20197 0.29408184 -0.11069687 0.39380726 -0.30008537 0.0071393214
0.16006652 0.23556192 -0.046391923 -0.47258168 -0.013281203 -0.19092502 0.2097512 -0.06763878
-0.27818573 -0.1311171 -0.047644593 -0.1988636 0.44521487 0.19943237 -0.38609973 0.38958234
-0.19566318 0.1981657 -0.23009495 0.09922359 0.106398284 0.27160847 -0.25952706 -0.1045811
-0.08828315 0.009632958 -0.15963958 0.31013736 -0.68687344 0.061935894 -0.27143353 0.04342285
-0.036328264 0.27375016 0.39822862 -0.35839704 0.4791937 0.060580242 0.22575928 -0.766586
-0.08296893 0.13020663 -0.22936161 0.25184378 -0.35128894 0.09804268 0.07409861 -0.0834478
0.33095562 -0.010395086 0.24161178 0.03771146 0.34881258 0.08537252 0.042488985 -0.048524387
-0.22227712 0.3112236 -0.28021806 0.33328694 0.5017252 0.2128015 -0.27375042 0.0135917375
0.4689746 0.36024448 0.30135304 -0.026905317 0.216557 -0.28674123 0.45428884 -0.19392958
-0.08544416 0.099151604 -0.3617701 0.0723527 -0.044817694 0.42730492 0.016595876 0.26095042
0.027245956 -0.28543666 0.09276838 0.14624314 0.4996125 0.43560126 -0.018996462 0.07631062
0.15353033 0.15983029 0.3487528 0.29275298 -0.09712529 0.26947573 0.28180712 -0.088198245
-0.044681527 0.24734482 -0.046632297 -0.22848897 -0.03986182 0.14324608 -0.2550405 -0.4533723
-0.19962072 0.0118346345 0.12100466 0.27153715 -0.046786495 -0.13197972 -0.060673654 0.09013612
0.07146244 0.18384863 0.105447605 -0.21348974 0.1188883 0.0049376264 0.14396974 -0.17440891
0.04378542 0.12886475 -0.046638973 -0.121765785 0.022432111 0.38898435 0.06146587 0.379834
0.042227637 0.23218608 0.040867325 -0.1398222 0.5774928 -0.084603995 0.023281487 0.04236744
-0.35683128 -0.3616584 -0.32361028 -0.10981611 0.24478993 0.042133126 -0.32813892 0.59809774
-0.19144185 0.042924244 0.017246462 -0.086327866 0.22931881 -0.02792571 -0.19102636 -0.21909629
0.40214255 0.20087059 0.07569872 0.16615552 -0.52498597 -0.09738137 -0.0020312571 -0.24145879
0.014232326 0.09922316 0.21499045 0.09627709 0.5359946 -0.08929601 0.3806104 -0.18671986
-0.6354907 -0.1236564 0.0062944773 -0.067229226 0.04986573 -0.14002879 -0.5781806 0.2045035
0.32961813 0.14507051 0.4416621 -0.56324226 0.02400449 -0.43247846 0.38919896 -0.49194503
-0.3277215 -0.35887015 -0.7493866 -0.12356971 -0.3425222 0.36056867 -0.45581448 0.44681656
-0.09909856 0.05737278 -0.12577115 -0.012958552 0.6390665 0.12923244 -0.18196708 0.10227479
-0.03438211 0.06978956 0.083359286 0.12604843 -0.47304353 0.028827166 -0.2074886 0.2164199
0.03422749 0.16355397 -0.033256706 0.17343518 0.5838573 0.0030108371 -0.27698186 -0.11052453
-0.08301381 0.18007797 0.13929893 0.5246201 -0.44347745 -0.1711106 -0.05723333 0.15025203
-0.090445705 0.20808162 -0.15435806 -0.03863578 0.66228116 -0.10876101 0.010323068 -0.11866951
0.19730914 -0.027668009 0.50253445 0.102182925 -0.3003823 0.097161785 -0.22610019 -0.0036691611

bias_ih_l0_reverse f4 [64]
00000000: 9906 0c3f 4560 3dbd 88f6 0b3e 8d2b 923c
00000010: a60f a53e 9b41 b43e 89af bb3e 17ae 553e
00000020: 9dd2 d73d 507f dd3e 5651 eb3e 01c8 013f
00000030: cc2b e53e 751a e63e 28c9 de3e 4056 e83e
00000040: 355e 593e fd15 623e 56ba a03e cfa8 b53d
00000050: f163 773e 8bf6 a2bd 237a 883e 6b4a 2a3e
00000060: 0d3a 133e a5a3 713e d69d 993e 9120 523e
00000070: 7c4a 86bd daf1 943e 8ee1 c83e dff8 ab3e
00000080: 5205 30bd db10 713e 21c3 c43d 5656 553e
00000090: a892 7c3e 855b 9d3d b69d 02be 4ba9 a6bc
000000a0: 6b87 32bd dff1 11be e3d4 143e a87f 38be
000000b0: 06ec 4cbe bd42 bf3d acb0 a5bd 8daf 253d
000000c0: a370 2a3f cddb 093d a992 8e3d c00c 4c3e
000000d0: 6704 e53e 69d4 6b3e 54b5 913e 1f2c ad3e
000000e0: 32ec bb3d f7c8 963d 9e65 393f d2d9 d83e
000000f0: c0fd e83e 2235 aa3c 06b1 cc3e 22e8 61bd
0.5469757 -0.046234388 0.13668263 0.017843032 0.322385 0.35206303 0.3665736 0.20867191
0.10538218 0.43261194 0.45960492 0.50695807 0.44759977 0.4494206 0.43512845 0.45378304
0.21227343 0.220787 0.31392163 0.08870088 0.24159218 -0.079571806 0.26655683 0.1662995
0.14377613 0.23597582 0.30003232 0.20520236 -0.065571755 0.29090768 0.39234585 0.3358831
-0.042973824 0.23541586 0.096075304 0.20833716 0.2466532 0.076834716 -0.12755474 -0.020344397
-0.043586176 -0.14252423 0.14534335 -0.18017447 -0.20011911 0.09338901 -0.08090338 0.04045062
0.6657812 0.033656884 0.06961567 0.19926739 0.4472992 0.23030247 0.28458655 0.33822724
0.0917591 0.0736255 0.7242068 0.42353684 0.45506096 0.020777289 0.39978808 -0.05515302

bias_hh_l0_reverse f4 [64]
00000000: d990 083f 24b8 823c 390d 893e c375 823e
00000010: 69c0 b43e dddb b9bc dfa6 943e 2e31 cbbd
00000020: f1a3 a0bc 67d4 c53e d83b da3e 2f3c 213f
00000030: b611 373e 47eb a03e 14f4 9b3e aae2 d93e
00000040: a14b 4a3e 1f04 f2bd c516 bd3c 8f2c b43d
00000050: 50c0 803e dc8c b53e 4c27 8d3e 449e 1cbd
00000060: 0aab 1a3e 2c91 3d3e 0284 003f 589a 543d
00000070: 8023 9ebd 5d1a 1c3c dd86 343d 2d7c 9b3d
00000080: 1423 51bd 33d0 4cbe bd1e 2cbe bd80 6f3e
00000090: f76c 5b3e 214e 753e 38f7 153e 237b 50bc
000000a0: 8846 67be 6901 293e 9d50 8e3a 5821 973e
000000b0: 7ec9 8abc 9cec f33d 0b31 683b b761 5b3d
000000c0: 1124 f23e 56a0 8abc 84be af3e 2f4f f13e
000000d0: a8d3 853e 6d00 1d3e 4fd2 f73e 962e d53e
000000e0: faef 9d3e 9261 9f3e 9eea f03e 6637 f03e
000000f0: df45 3c3f ecbf 67bd cce3 023f a16b a43e
0.5334602 0.015956946 0.267679 0.2548047 0.35303047 -0.022687847 0.29033563 -0.0992149
-0.019609423 0.38638613 0.42623782 0.6298246 0.1787785 0.31429502 0.30459654 0.42555743
0.19755413 -0.11817192 0.023082146 0.087975614 0.25146723 0.3545903 0.27569044 -0.03823687
0.15104309 0.1851241 0.5020143 0.051905006 -0.07721615 0.00952777 0.04407393 0.07592044
-0.051058844 -0.20001297 -0.168086 0.23388954 0.21428286 0.23955585 0.14645088 -0.012724671
-0.225855 0.16504444 0.0010857765 0.29517627 -0.016941782 0.11910364 0.0035429623 0.053559985
0.4729314 -0.016922157 0.3432504 0.47130725 0.26138043 0.15332194 0.4840264 0.41637105
0.3084715 0.31129128 0.47054 0.46917266 0.73544115 -0.056579515 0.5112884 0.32113364

weight f4 [5, 32]
00000000: dd53 2ebf 824a 15bf 021d e2be d6a3 953e
00000010: 6676 443e f23e 2fbe 76ad f4be 4de9 a5be
00000020: 1fb1 ddbe 1dd0 85be c873 cebe 2b25 acbe
00000030: a4b2 d33e e5d0 c43e ae31 e73e 9172 83be
00000040: 8970 293e edb0 d53d 4a79 8e3d f755 97be
00000050: 8212 96bd 5e6a 7cbe 6522 143e 4f3f d3bd
00000060: 7a4a 36be d78c f1bd 1b43 05be b6e1 9f3d
00000070: 473f e4bd 0c13 913d 5105 b9bd 4efd af3d
00000080: 7655 11bf 2fbd 26bf 832e 243f 59dd e23e
00000090: b56a b73e 2267 cf3e 8a9e febe c32f 653f
000000a0: c552 123f 60e4 313f 89be 3b3f 0139 0e3e
000000b0: d9a4 5bbe 34f1 e9be 8c3e 083f 415a fa3e
000000c0: bacb 71bf fe8b 14bf 4ddd b6bf dc86 493f
000000d0: fcea b13e f82e 8f3e 8bc6 6bbf 1ff8 9a3f
000000e0: a7bc 3e3e 7b11 bebd 6c16 8a3f f895 babe
000000f0: 5e4e 2f3e 71ab 8fbf 7e85 5a3f 71de 73bf
00000100: 9011 ad3e 93be 583e 6dca f3be 6412 89bf
00000110: 35ed acbf 493c a1be 7037 563f bb15 a33d
00000120: a8de f8be adf3 babe c5a5 90be 55ed 22bf
00000130: 6e9c ac3e 079f 99be 3977 04bf 5bbb 96bf
00000140: 4a76 633e 5d7c 343e 970c 173e 1852 a1be
00000150: c1b9 cabd e54f 9bbe 3613 783e fb7f b3bd
00000160: 0ae4 82be 4f3a 4fbe 42a9 58be 937f 32be
00000170: e58b e0be 4761 1c3e 5b66 3ebe 2e01 433e
00000180: fe38 ad3f de4b e23f 524e a9be 21f2 0c3d
00000190: b076 1fbe efe4 82be 6750 723f 71ec 4bbf
000001a0: 84e0 b23d c803 4dbe 4dc3 3dbf 9f21 b73e
000001b0: ef12 0dbf fa6f ac3e 254e a6bf 6bb0 4c3f
000001c0: 743e 203e 2a41 e43d 8eb9 293d fde9 a2be
000001d0: 4b7f 3ebf 5485 82be 36bd 003e e1d1 5abe
000001e0: c208 62be 8c4a 05be 37f4 10be 21a8 95bd
000001f0: df21 7d3f c830 01be 8181 d9bd cd80 9e3d
00000200: 8e84 e4be 7737 07bf 09c3 0f3f 6d10 a13e
00000210: a2b6 323e 0945 2b3f 0664 dabe 1d08 313f
00000220: a4c3 8b3e 9c4c 143f 89a7 353f 8888 0ebd
00000230: b180 1a3e 71dc a43e 4579 c73e 8218 bf3d
00000240: 4011 743e 52df 55bf d037 f83d 7962 f93e
00000250: 89e3 a73e 1897 543f 8e1b aa3e 6f46 a4be
00000260: 34ce 903f 3432 403f 4ae9 59be aea3 043f
00000270: 4f48 0ebf 9a09 b63e f4a1 57be 5e60 043e
-0.68096715 -0.58316815 -0.44162756 0.2922656 0.1918579 -0.17113855 -0.4778859 -0.32404557
-0.43299195 -0.2613534 -0.4032271 -0.33622107 0.4134723 0.38440624 0.4515509 -0.25673345
0.16546835 0.104341365 0.06956728 -0.29557773 -0.07327749 -0.24649951 0.14466245 -0.103148095
-0.17801848 -0.11794441 -0.1301388 0.07806723 -0.11144882 0.07083711 -0.09034217 0.08593236
-0.5677103 -0.6513242 0.6413347 0.443095 0.35823599 0.40508372 -0.4973033 0.89526004
0.57157546 0.694891 0.7333761 0.13888933 -0.21449603 -0.45691836 0.5322044 0.48896983
-0.9445149 -0.5802611 -1.4286286 0.78721404 0.3474959 0.27965522 -0.9209983 1.210697
0.18626653 -0.09280678 1.0788093 -0.36442542 0.17119738 -1.1224195 0.8535994 -0.95261294
0.33802462 0.21166448 -0.47615376 -1.0708737 -1.350989 -0.31491306 0.8367834 0.07963129
-0.48607373 -0.36514035 -0.28251472 -0.6364339 0.33713096 -0.3000414 -0.5174442 -1.1775926
0.22213092 0.17625566 0.14750896 -0.31507945 -0.09898711 -0.30334392 0.24226078 -0.08764645
-0.25564605 -0.20237087 -0.21158317 -0.17431478 -0.4385673 0.15271483 -0.18593733 0.19043419
1.3533018 1.7679403 -0.33067566 0.0344106 -0.1557262 -0.25565287 0.94653934 -0.79657656
0.08734229 -0.20020974 -0.7412613 0.35767838 -0.55107015 0.3367918 -1.2992598 0.7995669
0.15648824 0.111452416 0.041436724 -0.31819144 -0.74412984 -0.25492346 0.12572178 -0.21369125
-0.22073653 -0.13016719 -0.1415566 -0.07307459 0.9887981 -0.12616265 -0.10620404 0.077394105
-0.4463238 -0.5281901 0.56156975 0.31457844 0.17452481 0.66902214 -0.42654437 0.69153005
0.272977 0.57929397 0.70958763 -0.034798175 0.15088154 0.32199433 0.3895971 0.09330846
0.23834705 -0.83543885 0.121200204 0.4870794 0.32790783 0.8304305 0.33224148 -0.32084987
1.1312928 0.75076604 -0.21280399 0.51812255 -0.55579084 0.355542 -0.21057874 0.12927386

bias f4 [5]
00000000: b783 a3bd 6f68 ee3e adc2 013e 647e 87bc
00000010: 80c6 e7be
-0.07984107 0.46564052 0.12671919 -0.01653976 -0.4526863
