hand_gestures_classifier.pt (torch, 59022 bytes, 12 tensors)

weight f4 [32, 42, 3]
-0.009423949 -0.005333177 -0.013990619 0.010423636 0.053470407 -0.14307524 -0.08902847 -0.05405423
-0.07003919 -0.09489577 0.02941587 -0.038429372 -0.058557928 0.06543224 0.00045382555 -0.12832898
-0.036434576 -0.1578273 0.03381058 0.07310137 -0.015391998 -0.09049712 -0.096210286 -0.14576247
0.02959121 -0.06555877 -0.111996576 -0.10854712 -0.096453846 -0.062302124 -0.05907605 -0.012030946
-0.03872505 0.047745112 -0.005248221 -0.15527894 -0.08548391 0.09329901 -0.12030138 -0.098855495
-0.03568118 -0.04943903 -0.085944146 0.06091159 -0.045033816 -0.119356476 -0.1514301 -0.08164628
-0.050112996 -0.051146593 -0.1464204 -0.19331695 -0.05497512 -0.0049947426 0.004937319 0.038457684
0.0038227586 0.09844535 0.036026362 -0.08506109 0.010317796 -0.039229885 -0.02183843 0.024430346
-0.05301866 -0.13219385 -0.0077395337 0.08022715 -0.06723823 -0.04806309 -0.08755565 -0.036065858
0.0054486105 0.020720365 -0.14192438 -0.043236367 -0.18703136 -0.1496588 0.056549206 -0.0067280936
-0.14219125 0.11558141 -0.018466076 -0.015709985 0.045120828 -0.07565227 -0.1480115 -0.012736929
-0.07254843 -0.1671675 -0.079526015 0.06938562 -0.018138234 -0.025008263 -0.035758223 -0.03811377
0.031963233 0.00043566086 -0.062400028 0.0012577026 -0.08249835 -0.08990851 0.04687088 0.065225065
-0.0528614 0.099844664 0.097803675 -0.08618542 -0.06325562 0.03089982 0.022656677 -0.025194814
-0.084236875 -0.116435714 -0.008128757 -0.059758443 -0.112509064 0.026790459 0.066501744 -0.03806763
0.03351663 0.046970192 -0.032086235 0.099716425 -0.026720248 -0.08721369 -0.0038449867 -0.0065485
-0.008594302 -0.020772574 0.09028493 0.05655129 -0.07957531 0.012505554 -0.08226726 0.05383762
0.004183387 0.0119873015 0.08621549 0.078022555 0.06034922 -0.03975113 -0.024391653 0.03698095
0.07095799 -0.018175596 0.089872025 0.062175374 0.073561475 -0.012154747 0.012369286 -0.033881217
-0.061359808 0.027108049 0.051478308 -0.030971766 0.021664087 -0.077590354 -0.074385814 0.18735017
0.03852132 0.095396474 -0.028712317 0.041122135 0.019312644 -0.0046568206 -0.013083168 -0.044176813
-0.025086613 0.04665127 -0.007910616 -0.14851178 -0.03761741 -0.1634344 -0.08003957 0.055362992
-0.07541478 -0.13297874 -0.16853723 -0.058615375 -0.06393708 -0.08758505 0.06835523 0.13824728
0.061843235 0.16790284 -0.08319259 0.026787423 -0.032627944 0.09105882 0.109468535 0.029594587
0.0657729 0.0130932825 -0.00025652387 -0.015590657 -0.019969353 -0.12880388 0.03152787 -0.050744433
0.011058976 -0.21081991 -0.049122803 -0.2089755 -0.027784012 0.044505294 -0.032476984 0.22400229
0.16313837 0.12553535 0.032121502 -0.06922589 0.044082135 -0.039917167 0.08426389 0.032886524
0.065489955 -0.022723576 0.010602953 -0.2002707 -0.0390799 -0.20105657 0.041349746 0.024266778
0.07490339 -0.09101854 -0.13834266 -0.23647021 0.06385629 -0.058247752 -0.079810575 0.15357159
0.06913899 0.16481902 0.05181287 -0.037090845 -0.010128053 0.065368295 0.06531767 0.014134953
-0.030424986 0.08278969 0.05327461 0.026311329 -0.0483632 0.037829623 -0.012534701 -0.04100591
0.040471137 -0.07759584 -0.0028594767 -0.052590944 -0.07631835 0.054521702 0.014693804 0.0398786
00000000: e866 1abc eec1 aebb e938 65bc e6c7 2a3c
00000010: c903 5b3d 5182 12be 8f54 b6bd f867 5dbd
00000020: b570 8fbd b758 c2bd 8df9 f03c 1e68 1dbd
00000030: 70da 6fbd 5701 863d 6fef ed39 ac68 03be
00000040: 6c3c 15bd 7b9d 21be f67c 0a3d 2cb6 953d
00000050: b82e 7cbc 8e56 b9bd e609 c5bd c242 15be
00000060: 4469 f23c ad43 86bd 765e e5bd f44d debd
00000070: 9889 c5bd 8330 7fbd baf9 71bd 721d 45bc
00000080: 289e 1ebd 6190 433d 45f9 abbb 7101 1fbe
00000090: 3012 afbd 8d13 bf3d 9260 f6bd c074 cabd
000000a0: 6e26 12bd 9580 4abd 7c03 b0bd 6e7e 793d
000000b0: 6175 38bd 2b71 f4bd 7e10 1bbe 2a36 a7bd
000000c0: 4943 4dbd 177f 51bd 3bef 15be e1f4 45be
000000d0: 972d 61bd f0aa a3bb 3cc9 a13b ce85 1d3d
000000e0: 3f87 7a3b b79d c93d 6190 133d 8234 aebd
000000f0: f90b 293c 84af 20bd 82e6 b2bc 2622 c83c
00000100: 182a 59bd d35d 07be ea9b fdbb 224e a43d
00000110: 32b4 89bd cddd 44bd 6050 b3bd cbb9 13bd
00000120: 428a b23b c1bd a93c a054 11be 9e18 31bd
00000130: 2685 3fbe 2840 19be 24a0 673d 5777 dcbb
00000140: 959a 11be f2b5 ec3d 2b46 97bc 3ab2 80bc
00000150: 9ed0 383d 94ef 9abd 5490 17be 8dae 50bc
00000160: 4594 94bd f52d 2bbe 89de a2bd 0c1a 8e3d
00000170: a296 94bc 21de ccbc 3777 12bd 2f1d 1cbd
00000180: e1eb 023d 6969 e439 2c97 7fbd 7fd9 a43a
00000190: e5f4 a8bd f421 b8bd aefb 3f3d b894 853d
000001a0: 3285 58bd 5c7b cc3d 4b4d c83d fb81 b0bd
000001b0: 2a8c 81bd 9f21 fd3c 7f9a b93c 5b65 cebc
000001c0: 6284 acbd d975 eebd 7a2e 05bc 45c5 74bd
000001d0: 276b e6bd aa77 db3c 1132 883d ceec 1bbd
000001e0: bc48 093d d163 403d db6c 03bd 2038 cc3d
000001f0: 6ce4 dabc 179d b2bd 2cfc 7bbb cd94 d6bb
00000200: 1ecf 0cbc 3f2b aabc 4ee7 b83d 53a2 673d
00000210: 61f8 a2bd 18e4 4c3c bd7b a8bd d684 5c3d
00000220: cb14 893b 6366 443c bf91 b03d 4aca 9f3d
00000230: be30 773d 15d2 22bd 01d1 c7bc 5679 173d
00000240: 6c52 913d fde4 94bc d30e b83d 9bab 7e3d
00000250: 66a7 963d b424 47bc 8ca8 4a3c 08c7 0abd
00000260: 6c54 7bbd b311 de3c ebda 523d 80b8 fdbc
00000270: e278 b13c b1e7 9ebd 9757 98bd b9d8 3f3e
00000280: 88c8 1d3d 3a5f c33d 1836 ebbc af6f 283d
00000290: 8d35 9e3c 3e98 98bb c95a 56bc bff2 34bd
000002a0: 7182 cdbc 6715 3f3d 879b 01bc 7913 18be
000002b0: b714 1abd 595b 27be c9eb a3bd 4ec4 623d
000002c0: 1073 9abd 942b 08be 0695 2cbe ad16 70bd
000002d0: 72f1 82bd ca5f b3bd d4fd 8b3d b290 0d3e
000002e0: 554f 7d3d b9ee 2b3e e060 aabd 4c71 db3c
000002f0: e1a4 05bd 0c7d ba3d 0a31 e03d 5970 f23c
00000300: f1b3 863d 3585 563c 0d7e 86b9 f46f 7fbc
00000310: c596 a3bc 2ae5 03be 5e23 013d 65d9 4fbd
00000320: b530 353c 2de1 57be fe34 49bd acfd 55be
00000330: 4c9b e3bc 2f4b 363d 9606 05bd db60 653e
00000340: bf0d 273e 578c 003e d691 033d 4ec6 8dbd
00000350: 788f 343d 2f80 23bd 8c92 ac3d 05b4 063d
00000360: 991f 863d cb26 babc 02b8 2d3c c313 4dbe
00000370: 3f12 20bd c6e1 4dbe 5a5e 293d 1fcb c63c
00000380: f366 993d ee67 babd b3a9 0dbe 3f25 72be
00000390: 16c7 823d 3295 6ebd ba73 a3bd df41 1d3e
000003a0: be98 8d3d 51c6 283e bb39 543d 92ec 17bd
000003b0: 22f0 25bc d0df 853d 45c5 853d 4a96 673c
000003c0: d23d f9bc a48d a93d 7a36 5a3d db8a d73c
000003d0: 7e18 46bd 3cf3 1a3d 595e 4dbc d0f5 27bd
000003e0: 10c5 253d 91ea 9ebd 0f66 3bbb 9a69 57bd
000003f0: cc4c 9cbd 2652 5f3d 48be 703c be57 233d

bias f4 [32]
0.5868964 -0.13284938 0.020420507 -0.04631404 -0.0036730065 0.09207015 0.06155251 -0.055723984
-0.04371616 -0.001514991 0.098999985 0.062694944 0.110897616 -0.0888914 -0.04055334 0.12702954
0.027415043 -0.0006795656 -0.10717649 -0.34681576 -0.15094876 -0.10327705 -0.097661264 -0.08066724
-0.0030059665 -0.010512036 -0.06111284 0.023470882 -0.05511954 0.14681956 0.17101884 0.17279154
00000000: d83e 163f ab09 08be e848 a73c cab3 3dbd
00000010: d3b6 70bb 468f bc3d 7c1e 7c3d d53e 64bd
00000020: b70f 33bd aa92 c6ba 81c0 ca3d 3566 803d
00000030: 4a1e e33d b20c b6bd 421b 26bd 0814 023e
00000040: 8395 e03c e024 32ba 597f dbbd d691 b1be
00000050: 5092 1abe eb82 d3bd a102 c8bd de34 a5bd
00000060: c0ff 44bb ad3a 2cbc 7551 7abd 0246 c03c
00000070: 07c5 61bd de57 163e 901f 2f3e 44f0 303e

weight_ih_l0 f4 [64, 32]
0.5838153 0.44917336 0.29780707 0.39427695 0.16119213 0.333146 -0.018975176 -0.23069158
0.08906743 0.24587247 0.20554338 0.2872704 -0.16586344 0.21102579 -0.11349646 -0.19740276
0.10320041 -0.05369164 -0.12765642 -0.08499337 -0.056239005 -0.15975212 -0.052445773 0.15060021
0.3104565 0.4656064 0.25350443 0.1615679 0.401895 0.12153428 0.57216775 0.43108618
0.11972795 0.24086732 0.2708513 0.38003275 0.22452155 0.5825748 0.34857792 0.48731348
0.13954549 0.5867942 0.4668573 0.32960308 0.3846479 0.37445787 0.066687144 0.013657897
0.19888048 0.051547084 0.4142062 0.17496283 0.089898854 0.17428924 0.1332248 0.35375732
0.25784025 0.10232195 -0.05538524 -0.085526586 0.34385625 0.27515805 0.07662837 0.16553363
0.7165367 0.29098427 0.593866 0.41804597 0.31877124 0.44098938 0.25777677 0.2422124
0.35996097 0.18113746 0.27187836 0.026367586 0.02403603 0.44646427 0.33613986 0.45703587
0.4844047 0.36903387 0.41559988 0.39556724 0.72967756 0.6580233 0.37213466 0.24470945
0.5024013 0.5759106 0.5452374 0.7678445 0.52404565 0.30296117 0.9342026 0.30790088
-0.15649118 -0.19632024 -0.14436129 -0.25495037 -0.24923158 -0.22797418 -0.22811286 -0.11034287
-0.30135638 -0.13365768 -0.32453898 -0.36767462 -0.19001015 0.048583392 -0.0074941474 -0.03658026
0.062831275 -0.117614545 -0.09509254 0.08340161 -0.02987181 -0.019255118 0.05694013 0.0055050123
0.00016579202 0.115332164 0.15120307 0.121083245 0.086053394 0.12620468 0.13628143 0.015191653
0.024268 0.13651685 0.013870748 0.22223464 0.3785962 0.12479088 0.41544443 0.60401183
0.4550961 0.50382 0.07223485 0.44297418 0.4410183 0.30150047 0.35718498 0.16821212
-0.018963462 0.2951133 0.34546116 0.33893633 0.3583695 0.47808534 -0.12336764 -0.0057823635
0.01166043 0.0415643 0.5271736 0.6376024 0.403276 0.37147194 0.64477396 0.33286282
0.03764255 0.037711296 0.080868125 0.2464302 -0.17681915 0.04114065 0.23870155 0.11574164
-0.009207511 -0.2006498 -0.26764354 -0.35066587 -0.00076497084 -0.2981411 -0.24032867 -0.20651487
-0.13553742 -0.09869598 0.117985636 0.10889501 -0.19471964 -0.04007313 0.33881783 0.37819976
0.62185585 0.10628584 0.34232578 0.4114715 0.33060095 0.08807151 0.21464454 0.2695223
0.30042842 0.23839599 0.2802102 0.22167487 0.08868119 0.40647507 0.30248713 0.048030972
0.31583178 0.2377914 0.5872693 0.29125783 0.5207952 0.33400035 0.491796 0.4939096
0.30916804 0.35397103 -0.10834491 -0.11215929 -0.19878192 0.024003804 -0.34967226 0.09648943
-0.12511617 0.20026828 0.09747994 -0.056819245 0.24754438 0.27761412 0.16559209 0.42294365
-0.08395332 -0.18884434 -0.18121578 -0.02420944 -0.0013305125 -0.07720427 -0.04819111 -0.07518768
0.069318615 -0.043098036 -0.20267712 -0.08405277 -0.15528496 -0.13200398 0.071271084 -0.2537831
0.03519061 -0.007519892 0.06594757 -0.18036254 -0.03578225 -0.19450277 0.18270463 0.1059368
0.111795954 0.03993879 0.47244674 0.529155 0.49199513 0.27390796 0.5067159 0.3169105
00000000: eb74 153f 0dfa e53e 2b7a 983e abde c93e
00000010: 8d0f 253e 1d92 aa3e d471 9bbc 6a3a 6cbe
00000020: fc68 b63d fec5 7b3e f779 523e 1b15 933e
00000030: 1bd8 29be 2517 583e d570 e8bd f323 4abe
00000040: bd5a d33d c4eb 5bbd 5db8 02be 0111 aebd
00000050: df5a 66bd 0f96 23be 61d1 56bd f136 1a3e
00000060: 28f4 9e3e f663 ee3e 55cb 813e 0e72 253e
00000070: 2ec5 cd3e f7e6 f83d 9679 123f 54b7 dc3e
00000080: ed33 f53d eca5 763e 06ad 8a3e a793 c23e
00000090: fae8 653e 9f23 153f ce78 b23e 2781 f93e
000000a0: 03e5 0e3e 2538 163f ec07 ef3e bcc1 a83e
000000b0: 92f0 c43e f1b8 bf3e 4593 883d 5fc5 5f3c
000000c0: 53a7 4b3e 0923 533d d612 d43e 7529 333e
000000d0: e41c b83d e178 323e 156c 083e ae1f b53e
000000e0: a303 843e 2c8e d13d a2db 62bd 9028 afbd
000000f0: ed0d b03e 84e1 8c3e 56ef 9c3d a681 293e
00000100: f36e 373f e4fb 943e 9a07 183f 1f0a d63e
00000110: fc35 a33e 5cc9 e13e 51fb 833e 8706 783e
00000120: ce4c b83e 197c 393e a433 8b3e d600 d83c
00000130: 35e7 c43c f796 e43e 861a ac3e 9b00 ea3e
00000140: e503 f83e 02f2 bc3e 82c9 d43e ca87 ca3e
00000150: 26cc 3a3f 3774 283f 6f88 be3e 1d95 7a3e
00000160: 5f9d 003f e16e 133f ae94 0b3f 7591 443f
00000170: db27 063f ba1d 9b3e e727 6f3f 2fa5 9d3e
00000180: 393f 20be 2c08 49be 72d3 13be db88 82be
00000190: 9036 7fbe 1072 69be 6b96 69be 71fb e1bd
000001a0: 624b 9abe 8fdd 08be f929 a6be d93f bcbe
000001b0: 0592 42be 61ff 463d 7791 f5bb 2fd5 15bd
000001c0: afad 803d e5df f0bd e1bf c2bd 77ce aa3d
000001d0: bab5 f4bc e9bc 9dbc 0e3a 693d 6463 b43b
000001e0: 75d8 2d39 4533 ec3d fad4 1a3e 7efa f73d
000001f0: c33c b03d cd3b 013e 5c8d 0b3e 69e6 783c
00000200: afcd c63c 13cb 0b3e 2242 633c 7a91 633e
00000210: 5cd7 c13e 5c92 ff3d 22b5 d43e 85a0 1a3f
00000220: 5b02 e93e 59fa 003f ddef 933d 83cd e23e
00000230: 27cd e13e 455e 9a3e f3e0 b63e cc3f 2c3e
00000240: 4359 9bbc 1719 973e 49e0 b03e 1089 ad3e
00000250: 357c b73e 9ac7 f43e 2ca8 fcbd fb79 bdbb
00000260: 630b 3f3c 543f 2a3d d9f4 063f e939 233f
00000270: 317a ce3e 9231 be3e e80f 253f ff6c aa3e
00000280: 132f 1a3d 2977 1a3d 309e a53d 3358 7c3e
00000290: 1410 35be 1983 283d 2e6e 743e f409 ed3d
000002a0: 1adb 16bc 2477 4dbe 9308 89be 7a8a b3be
000002b0: 5388 48ba f3a5 98be b818 76be a278 53be
000002c0: 52ca 0abe 1e21 cabd 74a2 f13d 5904 df3d
000002d0: 9664 47be b923 24bd 8879 ad3e 66a3 c13e
000002e0: f231 1f3f 64ac d93d 5345 af3e 64ac d23e
000002f0: 8744 a93e d65e b43d c7cb 5b3e d4fe 893e
00000300: c1d1 993e 141e 743e b677 8f3e bdfe 623e
00000310: 7c9e b53d 801d d03e 98df 9a3e 20bc 443d
00000320: b4b4 a13e 977f 733e 4857 163f bf1f 953e
00000330: d652 053f 1802 ab3e afcc fb3e b8e1 fc3e
00000340: 464b 9e3e b13b b53e f0e3 ddbd c5b3 e5bd
00000350: 7d8d 4bbe a0a3 c43c 3e08 b3be 409c c53d
00000360: 741e 00be 2113 4d3e 90a3 c73d 4cbb 68bd
00000370: 467c 7d3e 7023 8e3e f990 293e 128c d83e
00000380: b8ef abbd 6960 41be a190 39be e052 c6bc
00000390: 9764 aeba 461d 9ebd 0b64 45bd 00fc 99bd
000003a0: ebf6 8d3d 9187 30bd 978a 4fbe dc23 acbd
000003b0: 0503 1fbe 0d2c 07be 93f6 913d dcef 81be
000003c0: 0724 103d 6d69 f6bb 850f 873d f5b0 38be
000003d0: 6990 12bd bc2b 47be ec16 3b3e 65f5 d83d
000003e0: 47f5 e43d db96 233d 8ae4 f13e b476 073f
000003f0: c9e6 fb3e aa3d 8c3e 22b8 013f 1842 a23e

weight_hh_l0 f4 [64, 16]
0.024644008 -0.4997148 0.4957186 0.33445257 -0.104929164 -0.13789219 -0.18285927 0.2236935
0.2731646 0.5154455 -0.14435549 -0.16801086 0.40769622 0.53728896 0.23268844 -0.5618491
0.1495779 0.006162542 0.34045273 0.09200284 -0.36353862 0.12656465 -0.13077274 0.4048801
0.40180963 0.08331779 -0.05252869 -0.3727988 0.21445924 0.12872353 0.49198785 -0.012635938
-0.18876891 0.0074621984 0.08176366 -0.39039078 -0.17097208 0.3034905 -0.22891459 0.047034632
0.23561445 0.16903967 -0.3206804 -0.23903617 0.27681094 0.01657412 0.21150622 -0.13831674
0.13787088 -0.08991309 0.44138125 0.4469658 -0.45693526 0.52112377 -0.017826207 -0.20169428
0.5212754 0.2976532 -0.10390735 -0.14641704 0.41843832 0.4512 0.23661716 -0.18883294
0.5213308 0.09203463 -0.38332015 -0.1548483 -0.20028538 0.7921917 -0.25457245 0.26827806
0.47954717 -0.11884219 -0.3087453 -0.24050267 -0.14060865 -0.34640822 0.08239966 -0.030982705
-0.054870714 0.07768791 0.30069405 0.030083675 -0.092455514 0.2177181 -0.4532407 -0.07966295
-0.03082655 0.11916539 -0.10979452 -0.107638896 -0.15614949 -0.1807731 0.2874335 0.022560095
-0.28036517 -0.3715401 0.23865722 0.006588792 -0.40668574 0.47975802 0.0659423 -0.005693025
-0.03979002 0.08404506 -0.12330179 -0.31634688 0.07777009 0.22624002 -0.06791674 -0.11324762
-0.2614419 0.004747575 -0.021406854 -0.3497875 -0.46405682 0.5523538 -0.2814495 0.17731233
0.4500071 0.055381846 -0.27630314 -0.501023 0.05632126 0.35758948 0.17695922 -0.29509002
-0.082080856 0.2125664 0.19840135 -0.24506772 -0.092362106 0.51351196 0.2704171 0.27491498
0.22820602 0.19460599 -0.2336732 -0.13930991 0.36829287 0.142396 0.058144256 0.013120571
0.33215532 -0.084836 -0.052098364 -0.197556 -0.2151629 0.5292764 -0.21816343 0.40382752
0.5032597 -0.08787724 -0.37142497 -0.2829796 -0.02165217 0.014749363 0.27075067 -0.004204602
0.21941446 0.10838657 0.14270112 -0.041222822 -0.14853203 -0.029622672 -0.268538 -0.1704518
0.30646744 -0.08292471 -0.09064713 0.020684721 0.35148582 0.012449742 0.091785096 -0.32997766
0.10869817 -0.2917225 0.39030936 -0.09962781 -0.25401434 0.3579214 -0.2053593 -0.11711999
0.49637526 0.40746453 0.112204954 -0.01804168 0.4332771 0.44804052 0.9041231 -0.47342056
-0.02899709 -0.35319662 0.07166958 0.12691149 -0.0754402 0.4511634 -0.14196645 -0.030148089
0.27357978 0.14545591 0.1679327 -0.066761546 0.18406378 0.5202509 0.4943265 -0.29595244
0.14454858 5.882168e-05 0.24843295 -0.030713376 -0.0009149266 0.15420479 -0.2766053 -0.11396204
0.09515761 -0.015349479 -0.4103502 -0.38783592 0.05583397 0.107565776 0.01493232 0.08479274
0.06720477 -0.27238008 0.2235875 -0.2042371 -0.30858028 0.545782 -0.20176952 -0.07549609
0.5137858 -0.0054544145 0.10188962 -0.17400968 0.06244789 0.06795021 0.1039298 -0.3823788
-0.10984443 0.08108565 0.12619534 -0.18438189 -0.4152755 0.50330704 -0.53518486 0.2199802
0.5513866 0.28545222 -0.32844594 -0.38721377 0.32035092 0.3088714 0.5136179 -0.3074483
00000000: 3be2 c93c 9eda ffbe d4ce fd3e 5e3d ab3e
00000010: 1ae5 d6bd 9c33 0dbe 763f 3bbe e90f 653e
00000020: 3bdc 8b3e 3cf4 033f edd1 13be 0a0b 2cbe
00000030: 8fbd d03e c58b 093f e145 6e3e 58d5 0fbf
00000040: f32a 193e 26ef c93b d24f ae3e fc6b bc3d
00000050: bc21 babe 2a9a 013e 4ae9 05be 724c cf3e
00000060: feb9 cd3e 84a2 aa3d 5328 57bd 7cdf bebe
00000070: 349b 5b3e 1ad0 033e d5e5 fb3e f706 4fbc
00000080: a34c 41be 7585 f43b b573 a73d 4de1 c7be
00000090: 4e13 2fbe 1b63 9b3e 9668 6abe 63a7 403d
000000a0: ea44 713e bc18 2d3e 3930 a4be e6c5 74be
000000b0: 2aba 8d3e 73c6 873c 1695 583e e7a2 0dbe
000000c0: 062e 0d3e 5b24 b8bd b9fc e13e b4d8 e43e
000000d0: 6bf3 e9be 5e68 053f 4408 92bc f288 4ebe
000000e0: 4e72 053f 0066 983e 60cd d4bd 59ee 15be
000000f0: 8c3d d63e b003 e73e c54b 723e 6c5d 41be
00000100: ef75 053f a77c bc3d 8a42 c4be 8e90 1ebe
00000110: 9c17 4dbe 13cd 4a3f 5257 82be be5b 893e
00000120: 3587 f53e 8963 f3bd dd13 9ebe 5546 76be
00000130: b7fb 0fbe 6b5c b1be 27c1 a83d 71cf fdbc
00000140: 1dc0 60bd d71a 9f3d 92f4 993e 0a72 f63c
00000150: 5159 bdbd 7ef1 5e3e 2a0f e8be 5426 a3bd
00000160: f687 fcbc fc0c f43d f3db e0bd c871 dcbd
00000170: a7e5 1fbe 951c 39be 7c2a 933e f3cf b83c
00000180: 068c 8fbe 813a bebe 8f62 743e cbe6 d73b
00000190: 1d39 d0be d8a2 f53e c20c 873d 8e8c babb
000001a0: dcfa 22bd d11f ac3d a685 fcbd 38f8 a1be
000001b0: ed45 9f3d 77ab 673e ef17 8bbd 5eee e7bd
000001c0: b6db 85be 8c91 9b3b 6d5d afbc 5917 b3be
000001d0: db98 edbe 0f67 0d3f 261a 90be 5d91 353e
000001e0: 5567 e63e 13d8 623d 9b77 8dbe 0b43 00bf
000001f0: 1fb1 663d f815 b73e cc34 353e 0a16 97be
00000200: 021a a8bd 02ab 593e b929 4b3e 08f3 7abe
00000210: 5828 bdbd 8575 033f 1c74 8a3e a8c1 8c3e
00000220: d7ae 693e cb46 473e 0748 6fbe 42a7 0ebe
00000230: e290 bc3e 42d0 113e ac28 6e3d aaf7 563c
00000240: 4310 aa3e 7fbe adbd 1865 55bd 1f4c 4abe
00000250: aa53 5cbe a87e 073f 3c66 5fbe 7bc2 ce3e
00000260: a1d5 003f fbf8 b3bd 6a2b bebe b4e2 90be
00000270: e45f b1bc 50a7 713c d59f 8a3e c2c6 89bb
00000280: 2fae 603e c7f9 dd3d 3e20 123e 43d9 28bd
00000290: c818 18be 3fab f2bc d07d 89be eb8a 2ebe
000002a0: 4de9 9c3e 6ed4 a9bd 34a5 b9bd 0173 a93c
000002b0: f3f5 b33e 01fa 4b3c d3f9 bb3d d5f2 a8be
000002c0: 259d de3d a75c 95be a1d6 c73e aa09 ccbd
000002d0: 2b0e 82be 7941 b73e b549 52be 9bdc efbd
000002e0: e624 fe3e 319f d03e b6cb e53d 25cc 93bc
000002f0: 7fd6 dd3e 9165 e53e 9d74 673f 2e64 f2be
00000300: 4e8b edbc 30d6 b4be 80c7 923d 16f5 013e
00000310: 6480 9abd e4fe e63e a75f 11be 20f9 f6bc
00000320: a612 8c3e 65f2 143e 8df6 2b3e 47ba 88bd
00000330: 377b 3c3e 2a2f 053f 5d18 fd3e 1487 97be
00000340: 8b04 143e 4cb7 7638 3565 7e3e 9e9a fbbc
00000350: afd7 6fba dce7 1d3e 369f 8dbe ee64 e9bd
00000360: fee1 c23d 627c 7bbc 6c19 d2be 6e92 c6be
00000370: 29b2 643d 724b dc3d b1a6 743c d1a7 ad3d
00000380: a8a2 893d 6775 8bbe 1ff4 643e 8823 51be
00000390: 3cfe 9dbe 5fb8 0b3f ab9c 4ebe b29d 9abd
000003a0: 7787 033f f2ba b2bb 81ab d03d 982f 32be
000003b0: 5cc9 7f3d 7b29 8b3d 26d9 d43d 27c7 c3be
000003c0: 1ef6 e0bd 3c10 a63d 5a39 013e 9bce 3cbe
000003d0: fe9e d4be bbd8 003f e001 09bf 7d42 613e
000003e0: ac27 0d3f cb26 923e 112a a8be e240 c6be
000003f0: 0905 a43e 6424 9e3e 767c 033f dd69 9dbe

bias_ih_l0 f4 [64]
0.60252815 0.22074191 0.26176798 0.13747518 0.1409727 0.33524615 0.1711646 0.41645977
-0.071506195 0.036986787 0.17392717 0.26351663 0.031556692 0.27937663 0.15480685 0.34055486
0.10745475 0.27820468 0.18442415 0.13645668 0.06876379 0.21387641 0.11322748 -0.12076333
0.1546698 0.23033173 0.40027094 -0.05645166 -0.016201684 0.05752838 0.29877642 0.17625295
0.16267274 0.29786697 0.0091609415 -0.127606 -0.011264487 0.026119344 0.040946882 0.068577625
0.26538742 -0.017535653 -0.18543875 -0.21733251 -0.13783322 -0.08130022 0.23872751 -0.09436435
0.36386806 0.5408352 0.33864996 0.011095444 0.09728136 0.21801156 0.18127762 0.48773292
0.0009935092 0.14436543 0.1927407 0.45390385 0.0007166137 0.21754032 0.12391856 0.3729644
00000000: 493f 1a3f 2b0a 623e 7406 863e 4bc6 0c3e
00000010: 265b 103e 62a5 ab3e c645 2f3e 373a d53e
00000020: d771 92bd 757f 173d f719 323e a7eb 863e
00000030: 9741 013d 740a 8f3e b085 1e3e 355d ae3e
00000040: 3c11 dc3d d870 8e3e afd9 3c3e 4dbb 0b3e
00000050: 08d4 8c3d 6b02 5b3e cfe3 e73d c452 f7bd
00000060: c361 1e3e 15dc 6b3e 50f0 cc3e db39 67bd
00000070: 65b9 84bc e1a2 6b3d 39f9 983e a77b 343e
00000080: af93 263e 0582 983e c617 163c 26ab 02be
00000090: af8e 38bc 3cf8 d53c ebb7 273d 6d72 8c3d
000000a0: dce0 873e eea6 8fbc a8e3 3dbe 6a8c 5ebe
000000b0: 2724 0dbe bb80 a6bd fc74 743e 1942 c1bd
000000c0: ea4c ba3e 2d74 0a3f 8763 ad3e aac9 353c
000000d0: 733b c73d 6c3e 5f3e d7a0 393e 21b8 f93e
000000e0: a338 823a 88d4 133e d15d 453e 1666 e83e
000000f0: 22db 3b3a e4c2 5e3e 04c9 fd3d 31f5 be3e

bias_hh_l0 f4 [64]
0.5253861 0.35159248 0.25693744 0.17480241 -0.039368775 0.046282034 0.1917108 0.38147277
0.1233539 0.08321297 0.030066917 0.4890519 0.014867052 0.31246287 0.17600834 0.70453507
0.076430105 0.18621704 0.17787321 -0.10346951 0.32809427 0.076037124 -0.051583074 0.22683248
0.24522714 0.074018784 -0.04481694 0.13408534 0.34441277 0.07653025 -0.050220713 0.1620257
-0.030770162 -0.11913568 -0.16570754 -0.13865325 0.19673468 0.03460665 -0.15944801 0.32241866
0.16529132 0.028567148 -0.1631151 -0.31130412 0.076512374 0.18073003 0.33500764 0.22808714
0.5720917 0.37066564 0.48741704 0.38266146 0.24418266 0.14279097 0.31786352 0.35127848
-0.0047662235 0.41151303 0.4405775 0.5545175 0.0929602 0.19766253 0.29547375 0.47838026
00000000: b47f 063f ee03 b43e 4e8d 833e 67ff 323e
00000010: 2741 21bd 3b92 3d3d d64f 443e 6650 c33e
00000020: f8a0 fc3d 906b aa3d e54e f63c 0365 fa3e
00000030: f094 733c 22fb 9f3e 883b 343e 695c 343f
00000040: 6387 9c3d aeaf 3e3e 6524 363e d3e7 d3bd
00000050: f9fb a73e 5ab9 9b3d c648 53bd c646 683e
00000060: d31c 7b3e 2997 973d f891 37bd ab4d 093e
00000070: df56 b03e e4bb 9c3d 3cb4 4dbd 11ea 253e
00000080: b511 fcbc 68fd f3bd 3daf 29be 1efb 0dbe
00000090: d174 493e b4bf 0d3d 5746 23be 0f14 a53e
000000a0: 2142 293e a705 ea3c a507 27be 4163 9fbe
000000b0: 85b2 9c3d 4b11 393e 1f86 ab3e ad8f 693e
000000c0: 9a74 123f e3c7 bd3e ba8e f93e 34ec c33e
000000d0: 050b 7a3e cc37 123e 02bf a23e c6da b33e
000000e0: fb2d 9cbb d6b1 d23e 6093 e13e dcf4 0d3f
000000f0: eb61 be3d 0c68 4a3e 5648 973e 42ee f43e

weight_ih_l0_reverse f4 [64, 32]
-0.00719128 -0.12901387 -0.014335341 0.045172974 0.018293077 -0.03722783 0.060301922 0.0446785
0.075635545 0.1460438 0.07668745 0.14647977 0.3316828 0.021350482 0.32018143 0.14017111
0.21362737 0.06002627 0.22322051 0.021392656 0.38491288 0.40733233 0.405707 -0.007525639
0.3987104 -0.062242802 0.09474218 -0.11679086 0.2059683 -0.118824214 0.14251336 0.23775819
-0.0974808 -0.025691474 -0.15087041 0.15826324 -0.05306141 0.0699833 0.15973923 -0.21207829
0.1231551 0.031387173 0.37076625 0.10188525 0.087095164 0.26210386 0.4071624 0.33487508
0.3031607 -0.08869491 0.25490853 0.4272205 0.13005705 -0.062047135 0.44028074 0.33657902
0.2067076 -0.005222928 -0.025146496 -0.06227483 -0.020246875 0.15297788 0.3074459 -0.105385646
0.09679373 0.059839517 0.06871424 -0.18414903 -0.2072277 0.028507218 -0.22442725 -0.23152655
0.10392872 -0.088463105 -0.07986838 0.15269773 -0.090993814 -0.012875877 -0.040842842 0.093074314
-0.24706893 -0.047172863 -0.23245971 -0.21875137 -0.0016844169 -0.25110295 -0.16675952 -0.26599893
-0.2874477 -0.09847607 -0.18819118 0.04475479 0.018382827 -0.09513838 -0.2833675 -0.09470571
0.42838946 0.36149865 0.5710528 0.6104361 0.6792586 0.35378823 0.34444624 0.34730026
0.5429065 0.28794837 0.7372955 0.68994445 -0.15833142 -0.06896955 -0.08930393 -0.08500982
-0.039202396 -0.15169443 0.010449514 -0.25248364 -0.2661145 0.028247409 -0.11593133 -0.31058797
-0.07336073 -0.24556045 -0.20068002 -0.027244026 -0.29613996 -0.06898183 -0.09389305 -0.038665786
-0.12404097 0.20424004 0.06930408 0.011563437 -0.0997783 -0.13494095 -0.035352692 -0.22296843
-0.11264589 -0.02356315 -0.07701694 0.15064333 -0.048599325 0.31405908 -0.1048875 0.29118022
-0.012537543 -0.11017368 0.20398736 -0.10239821 0.033244234 0.110687874 0.1918137 0.037058834
0.094267555 0.123623654 0.28808472 -0.08691441 0.25259233 -0.0011082786 0.33440048 0.22419405
0.091107875 0.055923343 0.24775884 0.18643895 0.044287067 0.25149572 0.35991886 0.02728022
0.07590275 0.16769037 0.10977359 -0.03232475 -0.03496137 -0.23899986 -0.11360864 -0.23501636
0.04085056 0.075573385 -0.20315085 0.06894961 -0.22388203 -0.18928586 -0.18896517 -0.08906998
0.010444325 -0.02328654 -0.2596451 -0.24607338 -0.26824954 0.016752915 -0.20688185 -0.031950895
0.21307142 0.23431157 0.22289872 0.2916316 0.2500194 0.35670683 0.28355426 0.29587772
0.13679305 0.041131902 0.05759408 0.21093985 0.16943367 0.27012637 0.17063788 0.12687032
0.105863445 0.4020406 0.005714068 0.35670796 0.3456009 0.2948088 0.3789271 -0.0059474916
-0.01463248 0.1764654 0.06367035 -0.17565514 -0.18438265 0.20172232 0.05382902 0.124023765
0.61157537 0.5845779 0.14468987 0.4861962 0.22615579 0.26915577 0.19287868 0.27759048
0.22953732 0.2763964 0.43526185 0.2242595 0.5614386 0.4593255 0.1291207 0.044263806
0.07550181 0.20386268 0.019639285 0.36925355 0.51810074 0.40611675 0.25040233 0.6281503
0.31694722 0.34036192 0.49532613 0.27049837 0.047754485 0.2935885 0.1581427 0.49743837
00000000: d4a4 ebbb 361c 04be c7de 6abc 4c07 393d
00000010: 5ddb 953c 367c 18bd 26ff 763d ce00 373d
00000020: cfe6 9a3d 828c 153e 4f0e 9d3d cbfe 153e
00000030: 54d2 a93e 35e7 ae3c d2ee a33e 0489 0f3e
00000040: 22c1 5a3e 1bde 753d eb93 643e a73f af3c
00000050: 4d13 c53e dd8d d03e d4b8 cf3e a399 f6bb
00000060: c523 cc3e 4ff2 7ebd 3008 c23d 0c30 efbd
00000070: 5be9 523e 1c5a f3bd 06ef 113e e276 733e
00000080: 03a4 c7bd ed76 d2bc c67d 1abe c20f 223e
00000090: ec56 59bd 6853 8f3d ae92 233e 0d2b 59be
000000a0: be38 fc3d d68f 003d 13d5 bd3e 37a9 d03d
000000b0: f35e b23d 7a32 863e 9777 d03e bf74 ab3e
000000c0: e137 9b3e ada5 b5bd 5f83 823e a5bc da3e
000000d0: ad2d 053e 2325 7ebd 7a6c e13e 1654 ac3e
000000e0: 28ab 533e 1825 abbb 0600 cebc e413 7fbd
000000f0: c6dc a5bc 3ca6 1c3e 8d69 9d3e 6ed4 d7bd
00000100: cb3b c63d 481a 753d 0dba 8c3d 9091 3cbe
00000110: 8033 54be f887 e93c 42d0 65be 4c15 6dbe
00000120: 95d8 d43d 252c b5bd 0992 a3bd cb5c 1c3e
00000130: f75a babd 58f5 52bc d34a 27bd bf9d be3d
00000140: a3ff 7cbe 5538 41bd eb09 6ebe 5c00 60be
00000150: a7c7 dcba 9190 80be 02c3 2abe 0331 88be
00000160: 582c 93be d2ad c9bd 30b5 40be cc50 373d
00000170: 9597 963c e9d7 c2bd 8c15 91be 11f5 c1bd
00000180: dd55 db3e 5a16 b93e 8430 123f 8a45 1c3f
00000190: e4e3 2d3f bb23 b53e 425b b03e 57d1 b13e
000001a0: ecfb 0a3f f86d 933e 66bf 3c3f 33a0 303f
000001b0: a221 22be e83f 8dbd fbe4 b6bd a119 aebd
000001c0: b192 20bd c955 1bbe 7034 2b3c 8945 81be
000001d0: 2940 88be 1c67 e73c 686d edbd 6305 9fbe
000001e0: 273e 96bd 3374 7bbe 107f 4dbe dd2e dfbc
000001f0: a89f 97be 5846 8dbd 004b c0bd 0460 1ebd
00000200: 3109 febd 4d24 513e 4cef 8d3d 9274 3d3c
00000210: 9158 ccbd f62d 0abe fccd 10bd d651 64be
00000220: e3b2 e6bd 8207 c1bc 0fbb 9dbd 3f42 1a3e
00000230: 1610 47bd 5acc a03e 42cf d6bd 9315 953e
00000240: 446a 4dbc bda2 e1bd 10e2 503e 27b6 d1bd
00000250: 1b2b 083d 53b0 e23d d06a 443e 01cb 173d
00000260: 590f c13d 662e fd3d d77f 933e 2f00 b2bd
00000270: c853 813e a943 91ba 8a36 ab3e 2093 653e
00000280: c496 ba3d e00f 653d 7eb4 7d3e dae9 3e3e
00000290: 5b66 353d 0cc4 803e 4947 b83e c57a df3c
000002a0: e772 9b3d 06b7 2b3e fad0 e03d f566 04bd
000002b0: a733 0fbd 61bc 74be a6ab e8bd 21a8 70be
000002c0: eb52 273d 38c6 9a3d c706 50be 7435 8d3d
000002d0: 5541 65be 27d4 41be 1680 41be 526a b6bd
000002e0: ad1e 2b3c 6ac3 bebc 34f0 84be a9fa 7bbe
000002f0: 0158 89be 693d 893c d6d8 53be f1de 02bd
00000300: 652f 5a3e 5fef 6f3e 903f 643e bd50 953e
00000310: 8b02 803e 47a2 b63e 062e 913e 497d 973e
00000320: 7a13 0c3e ed79 283d c5e7 6b3d 9e00 583e
00000330: 0580 2d3e 014e 8a3e b2bb 2e3e 4bea 013e
00000340: efce d83d 44d8 cd3e 143d bb3b 6da2 b63e
00000350: 9af2 b03e 2ef1 963e bc02 c23e 2de3 c2bb
00000360: 12bd 6fbc 59b3 343e 9a65 823d f1de 33be
00000370: cece 3cbe 4c90 4e3e d27b 5c3d 2c00 fe3d
00000380: 3490 1c3f e6a6 153f 9529 143e b5ee f83e
00000390: 6295 673e c9ce 893e fd81 453e 5720 8e3e
000003a0: d50b 6b3e d483 8d3e a4da de3e 48a4 653e
000003b0: 71ba 0f3f b62c eb3e 3738 043e f74d 353d
000003c0: b1a0 9a3d 61c1 503e 91e2 a03c cd0e bd3e
000003d0: 40a2 043f 89ee cf3e bc34 803e 75ce 203f
000003e0: e846 a23e eb43 ae3e 639b fd3e c37e 8a3e
000003f0: 359a 433d 3b51 963e 29f0 213e 3eb0 fe3e

weight_hh_l0_reverse f4 [64, 16]
-0.23176241 0.21550815 -0.12457763 -0.27474338 0.41225642 0.116662055 0.030672453 -0.42319474
0.12102642 -0.15999989 0.12543853 -0.19532372 0.05411678 -0.119502984 0.32248393 0.03694405
-0.27540228 -0.09058079 0.10332315 -0.53936756 0.055272486 0.56889313 0.21798259 -0.1629857
-0.42066973 0.20064056 -0.25277674 -0.25123757 -0.37650877 0.23143817 0.08209224 0.086200066
-0.11976257 -0.04048261 0.2692678 -0.40240228 0.14281154 0.42084667 0.078256465 -0.3563398
-0.46217534 0.27622682 -0.2948797 -0.23492682 -0.22376397 -0.31265697 0.56214476 0.20398617
-0.12274157 0.16508585 -0.30736884 -0.27665108 0.2530961 0.33597857 0.24698846 -0.32784617
-0.07998119 0.14302649 0.2591048 0.0042045536 -0.29697838 -0.24937475 0.30241442 0.14320995
0.057229638 -0.024446825 -0.2734955 -0.11226877 0.35930002 0.11818729 0.32684988 -0.3219971
-0.43193913 -0.26948336 0.091752656 -0.14214294 0.01931908 -0.083927974 0.20809825 0.033184208
0.03582571 0.19955814 0.1000052 -0.014668208 -0.02683509 0.29826552 -0.13949513 -0.30388108
-0.2282436 0.14306378 0.03718033 0.043538857 -0.21246748 0.26136932 0.027739719 -0.086948946
-0.7617113 0.17982551 -0.23779981 -0.08368582 0.646552 0.067991905 0.46669516 -0.5897403
-0.065848805 -0.1489394 0.1208997 -0.32406858 -0.14369382 -0.08218677 -0.089600965 0.30390346
-0.35368887 -0.16606228 0.12621783 0.0036194753 0.35749602 0.31892243 0.1257218 -0.32570386
-0.24594776 0.1857391 -0.22513925 0.021794496 -0.14528659 0.1632589 0.23575819 0.09731031
-0.01754016 -0.33300298 0.22546454 -0.46992934 0.18716848 0.22938152 0.31547064 -0.24673888
-0.14939398 0.5213021 -0.3148713 0.14839381 -0.09788401 0.25730336 0.59479 -0.18168624
-0.35213012 0.34943256 0.049826656 -0.7317803 0.20215513 0.32306454 0.42674038 -0.4646397
-0.2560253 -0.13356856 -0.18726043 -0.07614903 -0.5889184 -0.26130036 -0.0808911 0.1486018
-0.089288756 -0.008156182 0.10165061 -0.43088436 0.21392216 0.49649075 0.28963104 -0.16146463
-0.23855042 0.45292068 -0.017162438 0.084185496 -0.21427125 -0.18434627 0.40285453 0.16876955
-0.4970896 0.1852548 -0.18767807 -0.16181944 0.6274836 0.37546304 0.40526846 -0.8152661
-0.38182598 -0.035370614 0.0819686 -0.028581817 -0.48170513 -0.002096493 0.087883 0.2582049
0.065473855 0.013109328 0.25275362 -0.092150405 0.34024233 0.26631194 0.4659678 -0.20752805
-0.26076305 0.0045083826 -0.35320413 0.07398626 -0.28057805 -0.15222824 0.54921585 -0.3373844
-0.18293704 -0.108979315 -0.060345657 -0.20097484 0.25766367 0.3696585 0.3444561 -0.09647576
-0.20036566 0.23856261 -0.19512904 -0.19002777 -0.44324195 -0.29232684 0.13826823 -0.14010789
-0.110728726 0.15889 -0.2141922 -0.18081911 0.05336432 0.2982284 -0.05854216 -0.34599918
0.04044009 0.11820641 -0.1462113 -0.29001305 -0.025224632 -0.26533586 -0.034493864 0.33478022
-0.3713247 -0.084455274 0.24891293 0.0014009104 0.42466098 0.14279701 -0.00526727 -0.27496472
-0.15682168 0.27673176 -0.050685495 -0.11130572 -0.40328744 0.045544624 0.09731874 -0.13540086
00000000: 2053 6dbe 2bae 5c3e 8e22 ffbd 2aab 8cbe
00000010: 4613 d33e 84ec ee3d cc44 fb3c fbac d8be
00000020: b3dc f73d 03d7 23be f572 003e f102 48be
00000030: 8fa9 5d3d fbbd f4bd 9d1c a53e a552 173d
00000040: 8701 8dbe 6c82 b9bd 169b d33d fe13 0abf
00000050: 6765 623d fba2 113f d436 5f3e b9e5 26be
00000060: 0662 d7be b874 4d3e f46b 81be 36a2 80be
00000070: c2c5 c0be 21fe 6c3e fa1f a83d a989 b03d
00000080: 1446 f5bd 18d1 25bd 78dd 893e ac07 cebe
00000090: 303d 123e 3779 d73e ed44 a03d 2c72 b6be
000000a0: 3fa2 ecbe 9a6d 8d3e 79fa 96be a890 70be
000000b0: 6222 65be 9314 a0be b8e8 0f3f c0e1 503e
000000c0: ef5f fbbd 440c 293e 735f 9dbe 36a5 8dbe
000000d0: d095 813e 6205 ac3e 8bea 7c3e 74db a7be
000000e0: 2ecd a3bd 8975 123e 62a9 843e 5ac6 893b
000000f0: 8d0d 98be 185c 7fbe 10d6 9a3e a1a5 123e
00000100: a069 6a3d b544 c8bc 9a07 8cbe 2bed e5bd
00000110: 2cf6 b73e 2e0c f23d de58 a73e cedc a4be
00000120: 2027 ddbe b9f9 89be d1e8 bb3d eb8d 11be
00000130: 0c43 9e3c 6ee2 abbd b517 553e 2aec 073d
00000140: fbbd 123d f858 4c3e 87cf cc3d ec52 70bc
00000150: 43d5 dbbc 42b6 983e d0d7 0ebe 4d96 9bbe
00000160: b1b8 69be 507f 123e 674a 183d cd55 323d
00000170: 1391 59be 33d2 853e 683e e33c 4a12 b2bd
00000180: 83ff 42bf 2e24 383e cb81 73be 7963 abbd
00000190: 6f84 253f 573f 8b3d abf2 ee3e 38f9 16bf
000001a0: bddb 86bd 9283 18be 439a f73d 51ec a5be
000001b0: 7924 13be 8a51 a8bd b680 b7bd 3c99 9b3e
000001c0: b516 b5be 3b0c 2abe 3f3f 013e b834 6d3b
000001d0: b809 b73e cd49 a33e 37bd 003e a8c2 a6be
000001e0: bbd9 7bbe 6432 3e3e e78a 66be 5f8a b23c
000001f0: 02c6 14be 572d 273e 986a 713e a14a c73d
00000200: 62b0 8fbc 5e7f aabe 2de0 663e 949a f0be
00000210: 18a9 3f3e fde2 6a3e 5e85 a13e 1ea9 7cbe
00000220: bcfa 18be 0e74 053f d036 a1be 8cf4 173e
00000230: 6977 c8bd 44bd 833e 2844 183f f50b 3abe
00000240: 664a b4be d3e8 b23e 0917 4c3d f455 3bbf
00000250: c101 4f3e b768 a53e b77d da3e 41e5 edbe
00000260: c015 83be 32c6 08be 33c1 3fbe 06f4 9bbd
00000270: 5bc3 16bf 29c9 85be 3caa a5bd 122b 183e
00000280: 06dd b6bd 82a1 05bc 322e d03d e09c dcbe
00000290: 690e 5b3e 0934 fe3e 854a 943e fc56 25be
000002a0: 9046 74be 38e5 e73e 3e98 8cbc 7269 ac3d
000002b0: ec69 5bbe 45c5 3cbe f342 ce3e edd1 2c3e
000002c0: 8782 febe 6fb3 3d3e ae2e 40be ffb3 25be
000002d0: c4a2 203f b13c c03e 597f cf3e 47b5 50bf
000002e0: b27e c3be c7e0 10bd 27df a73d 6a24 eabc
000002f0: 0ea2 f6be 5165 09bb 01fc b33d 6f33 843e
00000300: 2817 863d 82c8 563c ec68 813e 5ab9 bcbd
00000310: 3e34 ae3e 0a5a 883e 5593 ee3e 3c82 54be
00000320: bc82 85be 0ebb 933b 2cd7 b4be 1c86 973d
00000330: eda7 8fbe b8e1 1bbe 6999 0c3f a6bd acbe
00000340: d953 3bbe 8c30 dfbd 022d 77bd 59cc 4dbe
00000350: 7eec 833e e143 bd3e 8d5c b03e 1595 c5bd
00000360: a82c 4dbe c249 743e e8cf 47be a496 42be
00000370: 9cf0 e2be ddab 95be 3096 0d3e 7178 0fbe
00000380: bec5 e2bd 0fb4 223e 3355 5bbe a528 39be
00000390: 8c94 5a3d 65b1 983e e7c9 6fbd ce26 b1be
000003a0: 82a4 253d 3416 f23d 6ab8 15be 977c 94be
000003b0: e3a3 cebc 1ada 87be 7049 0dbd 5068 ab3e
000003c0: 451e bebe e3f6 acbd 08e3 7e3e c19e b73a
000003d0: 2a6d d93e 6139 123e 1099 acbb 2dc8 8cbe
000003e0: dd95 20be c9af 8d3e 989b 4fbd 41f4 e3bd
000003f0: b17b cebe 008d 3a3d 0c4f c73d 86a6 0abe

bias_ih_l0_reverse f4 [64]
-0.03891804 0.3430019 0.3929802 0.054064006 0.29721376 0.33475927 0.4699717 0.1508593
0.3227335 0.62209487 0.29113838 0.10291311 0.23582737 0.27220988 0.311695 0.22061062
0.2823532 0.27811447 -0.008800867 0.3144718 0.017330136 0.17273997 -0.06087027 0.44898507
0.041815877 -0.01239135 0.23202379 0.12093897 0.40721655 -0.054166235 0.27807727 0.15589862
-0.09818953 0.03306331 0.22040665 -0.29729286 -0.16874103 0.22567536 0.2198486 0.048673548
-0.25380343 0.21969323 -0.2048258 0.107017875 -0.31325 -0.06436454 0.16422702 -0.14886229
-0.09695493 0.52058595 0.25301096 0.46607935 -0.1005763 0.28279033 0.3433199 0.43729585
0.1414449 0.4866562 0.13958749 0.04025857 0.39773414 0.36445943 0.38160747 0.80428725
00000000: 8668 1fbd f29d af3e b334 c93e 3872 5d3d
00000010: 672c 983e 9165 ab3e 21a0 f03e dc7a 1a3e
00000020: 533d a53e 9c41 1f3f 1710 953e 1cc4 d23d
00000030: bb7c 713e 185f 8b3e 7d96 9f3e c0e7 613e
00000040: 9990 903e 0565 8e3e 8331 10bc 7302 a13e
00000050: eef7 8d3c bfe2 303e 1b53 79bd 5fe1 e53e
00000060: 2047 2b3d 1705 4bbc a597 6d3e daae f73d
00000070: b07e d03e 6add 5dbd 2560 8e3e e3a3 1f3e
00000080: 9817 c9bd 656d 073d 48b2 613e c536 98be
00000090: 73ca 2cbe 7117 673e fe1f 613e ea5d 473d
000000a0: 86f2 81be 43f7 603e dbbd 51be 302c db3d
000000b0: 4e62 a0be 8ed1 83bd 212b 283e 5b6f 18be
000000c0: 4e90 c6bd 1f45 053f a78a 813e f4a1 ee3e
000000d0: f2fa cdbd e5c9 903e a0c7 af3e 3ee5 df3e
000000e0: efd6 103e 002b f93e 06f0 0e3e 2ce6 243d
000000f0: cfa3 cb3e 6d9a ba3e 0e62 c33e c5e5 4d3f

bias_hh_l0_reverse f4 [64]
0.104091175 0.45333275 0.2018935 0.29954588 0.3606789 0.22794911 0.4105252 0.3104307
-0.06779054 0.20599674 0.37295926 0.4843831 0.13798426 0.117796965 0.23068453 0.58453727
-0.032366555 0.0666432 0.40142223 -0.084899165 0.297928 0.27732795 0.011967546 0.40430465
0.3432717 0.20679873 -0.02974305 0.21642308 0.27812964 0.1385596 0.35938236 0.07606791
-0.037682153 -0.2599703 0.13114256 -0.109236136 0.21395807 0.11857795 0.36142 0.08746145
0.038749773 0.20323834 -0.054408327 0.20339547 -0.37474847 0.252123 0.23953618 -0.143307
-0.07905005 0.27570856 0.050276518 0.33701056 0.19174601 0.37430292 0.23968558 0.48279822
0.32351586 0.32677966 0.49194583 0.266403 0.45100626 0.41857997 0.31311023 0.7845514
00000000: c12d d53d 3b1b e83e 2bbd 4e3e 145e 993e
00000010: e8aa b83e 7e6b 693e 5c30 d23e c6f0 9e3e
00000020: c4d5 8abd cff0 523e 84f4 be3e 1001 f83e
00000030: bf4b 0d3e 893f f13d 9138 6c3e 3ca4 153f
00000040: cb92 04bd 3b7c 883d 3787 cd3e 9ddf adbd
00000050: 058a 983e eefd 8d3e 8713 443c 0501 cf3e
00000060: 4fc1 af3e 0cc3 533e b2a7 f3bc 039e 5d3e
00000070: 0267 8e3e 91e2 0d3e f700 b83e 7ec9 9b3d
00000080: 9a58 1abd d41a 85be 3c4a 063e 32b7 dfbd
00000090: d317 5b3e ffd8 f23d 0b0c b93e fd1e b33d
000000a0: 15b8 1e3d b61d 503e 44db 5ebd e746 503e
000000b0: 08df bfbe 4416 813e f948 753e 12bf 12be
000000c0: fee4 a1bd ac29 8d3e c0ee 4d3d a68c ac3e
000000d0: 1159 443e a2a4 bf3e 2370 753e 5431 f73e
000000e0: dfa3 a53e aa4f a73e 53e0 fb3e f965 883e
000000f0: 4bea e63e 1d50 d63e fc4f a03e 5cd8 483f

weight f4 [5, 32]
0.47376612 -0.14100179 0.1618197 -0.44994482 -0.13446094 0.28562066 -0.29548967 -0.51282805
0.357268 0.28320232 -0.50983363 -0.6121421 0.2078757 -0.013110507 -0.16283427 -0.2557655
-0.14661202 -0.051125143 -0.02663977 -0.44760233 0.15926296 0.4365588 0.25613526 -0.25459296
0.8112003 0.278016 0.3885311 -0.31160936 0.03724836 -0.17013203 0.60824734 0.28736046
0.40786636 1.0111269 -0.76299447 0.3982709 0.9513743 -0.34422442 0.3585123 1.0750918
1.0317711 -1.0590222 -0.38623446 -0.45250577 -0.11915306 -0.9743549 0.6121155 0.90932554
0.22408083 -0.58614886 0.4191552 -0.4224034 -0.42597908 0.30983195 0.54767287 0.7399679
-0.7704802 0.2149164 -0.71160734 0.57937783 -0.29277813 0.5248278 0.28047797 -0.93880665
0.45070484 -0.1279729 0.20180868 -0.3956077 -0.039353013 0.16602717 -0.09986434 0.7451897
0.41791213 0.23512879 -0.42534393 -0.5481712 0.041670796 0.023957068 0.46024352 -0.27880278
-0.26225293 0.47865412 -0.39566392 1.1614381 0.22762087 -0.4465518 -0.6681593 -0.33446452
-0.0061980532 -0.78987783 0.3853083 -0.33309376 -0.037998322 -0.2343552 -0.9609069 0.3264944
-1.0481247 -0.08451044 0.18972932 1.1643591 0.06965989 -0.4918186 0.61218596 -0.5058288
-0.47357705 0.16623768 0.9321148 1.0861486 0.29475433 -0.033567395 0.23967074 -0.26095387
-0.38572308 0.5332103 -0.43389222 -0.42253757 0.24213856 -0.71518815 0.12935807 -0.4734565
0.68996936 -0.49762517 0.5834005 -0.5412316 -0.055483628 -0.42765245 -0.20588775 0.45257705
-0.15681253 -0.60367423 0.589271 -0.18562508 -0.35605833 -0.0035606993 -0.25996482 -0.011902386
-0.82137716 0.48958942 0.010973648 -0.042578727 -0.36527947 0.37842062 -0.6427185 -0.61279565
1.0853795 -0.67641544 0.99753386 -0.08498018 -0.8615781 0.14515035 0.2879397 0.87357974
-0.9635401 0.4690404 -1.0767115 0.7816665 0.14174187 0.6974488 0.28371644 -1.2182727
00000000: 7991 f23e c662 10be 10b4 253e 2b5f e6be
00000010: 21b0 09be df3c 923e 6c4a 97be b348 03bf
00000020: d5eb b63e e5ff 903e 7584 02bf 58b5 1cbf
00000030: 5edd 543e 74cd 56bc 07be 26be b2f3 82be
00000040: 7621 16be 9968 51bd a63b dabc 222c e5be
00000050: d415 233e a384 df3e 2924 833e 025a 82be
00000060: d3aa 4f3f 1d58 8e3e 8ced c63e 438b 9fbe
00000070: bd91 183d 1737 2ebe 19b6 1b3f e920 933e
00000080: dcd3 d03e 9b6c 813f 9b53 43bf 2aea cb3e
00000090: 448d 733f 2f3e b0be ed8e b73e 9c9c 893f
000000a0: 1311 843f 0a8e 87bf 86c0 c5be d6ae e7be
000000b0: 8506 f4bd 536f 79bf 9ab3 1c3f 8fc9 683f
000000c0: 7275 653e da0d 16bf 839b d63e 4245 d8be
000000d0: ee19 dabe 4ba2 9e3e 4a34 0c3f 896e 3d3f
000000e0: 313e 45bf 0b13 5c3e e62b 36bf 1b52 143f
000000f0: 04e7 95be 1d5b 063f cf9a 8f3e a255 70bf
00000100: c9c2 e63e 540b 03be efa6 4e3e 188d cabe
00000110: a030 21bd 0703 2a3e ad85 ccbd c1c4 3e3f
00000120: 94f8 d53e 9ac5 703e aec6 d9be f354 0cbf
00000130: ffae 2a3d 9d41 c43c 0aa5 eb3e 3dbf 8ebe
00000140: 0446 86be 2712 f53e 7694 cabe 01aa 943f
00000150: 7215 693e 70a2 e4be 7d0c 2bbf ef3e abbe
00000160: 0a19 cbbb 6f35 4abf 2147 c53e 448b aabe
00000170: 21a4 1bbd cffa 6fbe fffd 75bf 462a a73e
00000180: f328 86bf cf13 adbd 6748 423e b809 953f
00000190: d8a9 8e3d a6cf fbbe 38b8 1c3f ff7d 01bf
000001a0: b178 f2be 363a 2a3e 139f 6e3f eb06 8b3f
000001b0: 0aea 963e f77d 09bd 3f6c 753e bf9b 85be
000001c0: 7f7d c5be 7880 083f 1f27 debe d856 d8be
000001d0: 2cf3 773e 9216 37bf 7176 043e e468 f2be
000001e0: d5a1 303f bac8 febe bc59 153f 278e 0abf
000001f0: cd42 63bd 43f5 dabe 3dd4 52be 2eb8 e73e
00000200: 7793 20be 658a 1abf 77da 163f 8014 3ebe
00000210: 474d b6be 9f5a 69bb 1c1a 85be 3a02 43bc
00000220: c645 52bf 77ab fa3e d1ca 333c 0867 2ebd
00000230: e905 bbbe 59c0 c13e 3389 24bf 2de0 1cbf
00000240: b7ed 8a3f 9029 2dbf 615e 7f3f 170a aebd
00000250: 6290 5cbf 4ba2 143e d56c 933e eca2 5f3f
00000260: 90aa 76bf 1026 f03e afd1 89bf 4c1b 483f
00000270: c824 113e 018c 323f 4843 913e 5cf0 9bbf

bias f4 [5]
-0.2640669 0.34118053 0.06003696 -0.03639218 -0.08304829
00000000: c733 87be 37af ae3e 51e9 753d f70f 15bd
00000010: 3915 aabd
